pretrained/resnet8_cifar10.pth (torch_old, 733564 bytes, 84 tensors)

module.conv1.weight f4 [64, 3, 3, 3]
-0.00041538788 -0.00054069766 -5.747177e-05 -0.00094843324 -0.0009932731 -0.00032329618 -0.0009911472 -0.0010255318
-0.0003617445 0.00031797413 0.00014332369 0.00068812974 -0.0002304767 -0.00034106476 0.00040256564 -8.440712e-05
-0.00021099344 0.00046120622 -0.0015363501 -0.0016816036 -0.0012020011 -0.0022586419 -0.002304925 -0.001577099
-0.0018952885 -0.0019466307 -0.0012603453 0.14265345 0.15065874 0.13760929 0.02681168 -0.012429322
-0.051858302 -0.0878509 -0.18435234 -0.1953258 0.05740693 -0.012175825 0.018365981 0.052616846
0.02340046 -0.03507116 0.035095397 -0.028250843 -0.0976779 -0.24689299 -0.23081619 -0.088355176
-0.06815841 0.030646255 0.09230931 0.10041958 0.19362265 0.22794726 0.020286854 0.001350295
-0.013539651 0.00058412045 -0.017559847 -0.015037042 -0.017118081 -0.012590517 0.010615448 0.027141303
0.00890576 -0.004286509 0.00915072 -0.004964883 9.149684e-05 -0.007921298 0.003327987 0.026431648
0.013269943 -0.004385311 -0.014926688 0.0024645096 -0.012699462 -0.0027318732 -0.01353515 -0.0012377357
0.028636176 0.00935303 0.08007561 0.089030005 0.07035535 0.1339685 0.14171296 0.022832228
0.036116417 0.004574782 -0.032011397 -0.06824146 0.006987958 -0.012024921 -0.057865288 0.03319528
0.0023632976 -0.055862665 -0.02282308 0.017940765 0.024657782 0.09899411 0.027764792 -0.00049957284
0.07222776 -0.053902876 -0.10860466 -0.09678927 -1.7104107e-08 -1.865872e-08 -1.5851121e-08 -8.72224e-09
-9.375205e-09 -1.0726245e-08 -6.164018e-10 -8.1316076e-10 -7.779024e-09 -3.214138e-08 -3.1728632e-08 -2.8286843e-08
-1.7502584e-08 -1.3920437e-08 -1.3466415e-08 -6.8217196e-09 -1.8128847e-10 -6.708095e-09 -2.1288239e-08 -1.5761978e-08
-1.2585801e-08 5.5723324e-09 1.0067842e-08 9.299077e-09 1.06506315e-08 1.7426478e-08 1.15860335e-08 4.1798525e-05
-3.2186526e-06 -3.477566e-05 3.5295863e-05 9.664112e-07 -2.5838339e-05 4.3017822e-05 1.4416568e-05 -3.3144846e-05
9.003731e-06 1.8618973e-06 8.564492e-06 -1.1554531e-05 8.969374e-07 2.6539281e-05 5.9086765e-06 1.3236118e-05
1.1998945e-05 1.725667e-06 1.1532951e-05 2.1057827e-05 -2.3992474e-05 6.4307037e-06 4.136608e-05 -1.627735e-05
6.947408e-06 2.2344428e-05 0.00016666354 -0.0933803 -0.0071374574 -0.075487725 -0.22808921 -0.12696713
0.05453719 -0.27588832 -0.090932995 -0.08683207 0.15536743 -0.01910763 0.13435532 0.48940074
0.2765168 0.08261079 0.23891178 0.12603618 0.10567087 -0.047418695 0.073893756 -0.11890877
-0.268932 -0.15056226 0.069158435 -0.20423639 -0.05314531 -1.8463031e-07 -2.1044073e-07 -2.1344628e-07
-1.354991e-07 -1.5597705e-07 -1.9802903e-07 -1.2001699e-07 -1.2664093e-07 -1.7336822e-07 -1.01343254e-07 -1.1175955e-07
-1.07673536e-07 -4.479466e-08 -4.5392223e-08 -7.703255e-08 -5.2682143e-08 -4.080564e-08 -7.895681e-08 1.4139212e-11
1.415074e-08 2.5356012e-08 7.431178e-08 9.257113e-08 6.595055e-08 2.1889528e-08 4.2550425e-08 2.9389844e-09
0.28075215 0.15495957 0.1393597 0.4658897 -0.121107236 -0.73206276 0.18804312 -0.12040138
-0.31681618 -0.29150417 -0.25521255 0.026812335 0.13996924 0.20868339 0.0096436925 0.04176652
0.15480231 0.10281692 -0.08973844 -0.1858722 0.21812508 -0.30670094 0.01656243 0.31168318
-0.43873397 0.065689765 0.3338027 -0.070664175 -0.058415394 -0.0036008684 -0.06450226 -0.018885765
-0.0064640897 -0.062571645 -0.008910669 -0.012281457 0.013446308 0.020452173 0.08204379 0.04760639
00000000: 6bc8 d9b9 9bbd 0dba d80d 71b8 47a0 78ba
00000010: b730 82ba 1480 a9b9 62e9 81ba 236b 86ba
00000020: 86a8 bdb9 c4b5 a639 2949 1639 9b63 343a
00000030: 1eac 71b9 f0d0 b2b9 720f d339 ba03 b1b8
00000040: 1f3e 5db9 0dce f139 5b5f c9ba 4169 dcba
00000050: 778c 9dba b905 14bb 390e 17bb a9b6 ceba
00000060: 546b f8ba 1626 ffba 2c32 a5ba bf13 123e
00000070: 4946 1a3e 73e9 0c3e 2ba4 db3c 5ba4 4bbc
00000080: 5f69 54bd 2ceb b3bd dcc6 3cbe 7d03 48be
00000090: 8723 6b3d 1d7d 47bc 4174 963c c384 573d
000000a0: 52b2 bf3c c7a6 0fbd 31c0 0f3d 506e e7bc
000000b0: 5a0b c8bd 84d1 7cbe 145b 6cbe 8ff3 b4bd
000000c0: a396 8bbd db0d fb3c aa0c bd3d c8a8 cd3d
000000d0: 0445 463e 026b 693e 9e30 a63c 62fc b03a
000000e0: 6ad5 5dbc a91f 193a abd9 8fbc ed5d 76bc
000000f0: 383b 8cbc 7548 4ebc 6aec 2d3c 7057 de3c
00000100: 77e9 113c d875 8cbb e7ec 153c 75b0 a2bb
00000110: fee1 bf38 55c8 01bc 5b1a 5a3b 2f87 d83c
00000120: 2d6a 593c a8b2 8fbb 118f 74bc 9c83 213b
00000130: 6711 50bc 3a09 33bb 89c2 5dbc 853b a2ba
00000140: 6a96 ea3c 733d 193c aefe a33d 5d55 b63d
00000150: 7716 903d 0a2f 093e 341d 113e a70a bb3c
00000160: cfee 133d 0ee8 953b 621e 03bd 2ec2 8bbd
00000170: 3efb e43b 2d04 45bc 2704 6dbd c6f7 073d
00000180: 8ee1 1a3b 40d0 64bd 78f7 babc 83f8 923c
00000190: 1eff c93c 6dbd ca3d fd72 e33c c4f5 02ba
000001a0: 26ec 933d 43c9 5cbd 1f6c debd 7439 c6bd
000001b0: 54ec 92b2 f646 a0b2 fc28 88b2 d1d8 15b2
000001c0: 9610 21b2 8646 38b2 6c6f 29b0 1a85 5fb0
000001d0: 82a4 05b2 d20b 0ab3 0046 08b3 6dfb f2b2
000001e0: 9758 96b2 bb26 6fb2 eb59 67b2 7b64 eab1
000001f0: 2b54 47af 077d e6b1 55dd b6b2 f564 87b2
00000200: f038 58b2 c176 bf31 d6f6 2c32 c6c1 1f32
00000210: f9f9 3632 3bb1 9532 ea0b 4732 d350 2f38
00000220: 0800 58b6 15dc 11b8 a50a 1438 a3b5 8135
00000230: 69bf d8b7 096e 3438 b0de 7137 0205 0bb8
00000240: bb0e 1737 4ee6 f935 37b0 0f37 55da 41b7
00000250: 12c5 7035 aca0 de37 2543 c636 b210 5e37
00000260: 144f 4937 779d e735 a67d 4137 57a5 b037
00000270: 7243 c9b7 53c7 d736 7d80 2d38 588b 88b7
00000280: c81d e936 4b70 bb37 67c2 2e39 2c3e bfbd
00000290: 55e1 e9bb 4f99 9abd 3890 69be ac03 02be
000002a0: 6362 5f3d 3c41 8dbe 143b babd 03d5 b1bd
000002b0: a418 1f3e 9b87 9cbc 7194 093e bc92 fa3e
000002c0: 9c93 8d3e d92f a93d 4aa5 743e a10f 013e
000002d0: f869 d83d 1b3a 42bd 9c55 973d 7186 f3bd
000002e0: 75b1 89be fe2c 1abe f0a2 8d3d 5823 51be
000002f0: e6ae 59bd cb3e 46b4 82f5 61b4 ab2f 65b4
00000300: b67d 11b4 a57a 27b4 cea1 54b4 05de 00b4
00000310: cbfa 07b4 1827 3ab4 0ba2 d9b3 7600 f0b3
00000320: 273a e7b3 4064 40b3 47f5 42b3 186d a5b3
00000330: a144 62b3 4742 2fb3 f78e a9b3 5abd 782d
00000340: 9d1b 7332 76ce d932 5595 9f33 84cb c633
00000350: b3a0 8d33 9507 bc32 b0c0 3633 29f7 4931
00000360: bfbe 8f3e b9ad 1e3e 4fb4 0e3e 1889 ee3e
00000370: 1207 f8bd 7768 3bbf 608e 403e 0095 f6bd
00000380: bb35 a2be 0940 95be 38ab 82be 8ba5 db3c
00000390: 1954 0f3e 19b1 553e 9400 1e3c 5f13 2b3d
000003a0: 7f84 1e3e ad91 d23d cac8 b7bd 4855 3ebe
000003b0: 2e5c 5f3e e807 9dbe efad 873c f094 9f3e
000003c0: bda1 e0be 5b88 863d 30e8 aa3e 61b8 90bd
000003d0: fb44 6fbd 8cfc 6bbb c319 84bd 52b6 9abc
000003e0: b7d0 d3bb 9025 80bd 0efe 11bc 2a38 49bc
000003f0: e74d 5c3c 518b a73c 9306 a83d ebfe 423d

module.bn1.weight f4 [64]
0.0015676421 0.19237487 0.07472512 0.18713616 2.4709935e-08 1.9692454e-05 0.18327923 2.12873e-07
0.2110116 0.22581345 0.3846091 3.8805933e-06 0.18262723 0.14229693 0.34711394 0.17067984
1.0876867e-08 0.18072602 8.305304e-09 0.12850341 0.20441946 0.19699489 0.33000642 0.00020032375
0.47724727 0.46383336 0.17858917 4.040828e-09 0.20208253 1.3658322e-06 0.43766186 0.32958433
0.13672774 0.2897296 1.1663316e-05 0.19796014 8.3802286e-07 0.0014567021 1.0994697e-09 0.00016291074
2.5079366e-06 0.28953847 8.922915e-08 0.16210215 0.40919712 1.7906004e-07 6.564239e-06 1.3770634e-08
0.14338516 3.0630542e-07 0.11858101 0.31521577 -1.1069654e-09 0.28215125 1.6532328e-09 0.22361459
0.16336943 0.2562294 0.35120147 0.35517284 0.20545298 0.3251316 1.6406706e-07 2.1397454e-06
00000000: 5779 cd3a ebfd 443e 7c09 993d 9fa0 3f3e
00000010: b941 d432 3931 a537 8dad 3b3e 1692 6434
00000020: 6d13 583e a43b 673e 7ceb c43e 0b36 8236
00000030: a202 3b3e 49b6 113e ebb8 b13e b2c6 2e3e
00000040: f8dc 3a32 3e10 393e 1daf 0e32 6696 033e
00000050: 5653 513e 07b9 493e 9af6 a83e ff0d 5239
00000060: c159 f43e 917b ed3e 14e0 363e 80d7 8a31
00000070: b9ee 4e3e a351 b735 3715 e03e 47bf a83e
00000080: 5b02 0c3e 7057 943e 90ad 4337 10b6 4a3e
00000090: 7ef4 6035 d0ee be3a 271c 9730 05d3 2a39
000000a0: 064e 2836 633e 943e 3e9e bf33 1bfe 253e
000000b0: 4982 d13e a643 4034 6242 dc36 e493 6c32
000000c0: 8fd3 123e 4c72 a434 9ada f23d f663 a13e
000000d0: e223 98b0 2176 903e f537 e330 39fb 643e
000000e0: 514a 273e 8030 833e aed0 b33e 37d9 b53e
000000f0: 4462 523e a677 a63e 692a 3034 8c98 0f36

module.bn1.bias f4 [64]
-0.0028281831 -0.013717981 -0.03735337 -0.07600696 -5.496618e-08 -5.249973e-05 0.009330388 -4.5578832e-07
0.28644487 -0.19329922 0.20466086 -1.8040373e-05 0.04271094 0.12321403 -0.18639533 0.13602605
-3.3968767e-08 0.05476029 -3.160368e-08 -0.07090035 -0.29764718 0.07305455 -0.2565214 -0.0016399166
-0.2706385 0.40649265 0.13764924 -2.1378014e-08 0.19732542 -3.9367346e-06 -0.21357757 -0.23081411
0.04694682 0.13284777 -3.950529e-05 0.0906637 -2.285013e-06 -0.005115705 -3.1820173e-09 -0.0003215088
-5.409966e-06 0.09833467 -2.6516014e-07 0.05926628 0.33398563 -4.8452307e-07 -4.96408e-05 -4.211841e-08
-0.029857794 -1.0104475e-06 0.039061375 -0.19887747 -6.037786e-08 -0.03347765 -9.754521e-09 0.15351063
-0.1791702 -0.025994468 -0.33910936 0.3328242 -0.046487957 -0.2965234 -5.324603e-07 -3.6989395e-06
00000000: 0a59 39bb 62c1 60bc d9ff 18bd 89a9 9bbd
00000010: f413 6cb3 2833 5cb8 7cde 183c 12b3 f4b4
00000020: e7a8 923e 3bf0 45be 9e92 513e 6855 97b7
00000030: abf1 2e3d a357 fc3d 6bde 3ebe 6a4a 0b3e
00000040: 0ee5 11b3 534c 603d 9dbc 07b3 3434 91bd
00000050: 3665 98be a09d 953d c656 83be 78f2 d6ba
00000060: 2191 8abe ce1f d03e ecf3 0c3e c0a2 b7b2
00000070: ad0f 4a3e 4b18 84b6 14b4 5abe 895a 6cbe
00000080: 4f4b 403d 3f09 083e 7bb2 25b8 e4ad b93d
00000090: 3958 19b6 a5a1 a7bb a4aa 5ab1 2e90 a8b9
000000a0: 4187 b5b6 b063 c93d 555b 8eb4 33c1 723d
000000b0: 2a00 ab3e 2c10 02b5 6735 50b8 aee5 34b3
000000c0: 5598 f4bc b69e 87b5 d2fe 1f3d 89a6 4bbe
000000d0: 14a9 81b3 dc1f 09bd d694 27b2 e431 1d3e
000000e0: 6578 37be 5af2 d4bc be9f adbe ef67 aa3e
000000f0: 286a 3ebd ead1 97be 65ee 0eb5 4c3b 78b6

module.bn1.running_mean f4 [64]
0.005747843 0.011728835 -0.00045727412 -0.10928272 6.6128926e-08 -5.0406146e-05 -0.004289485 5.4391546e-07
-0.0012049545 -0.11942634 -0.050348546 -1.7677898e-05 0.1183099 -0.05216698 0.08868866 0.021483354
-5.3790867e-08 -0.004874118 3.1599097e-07 0.025723735 -0.034478005 -0.03068456 0.0467402 0.0010540484
0.17152356 0.030659812 0.012925115 8.6797804e-08 0.0067918897 -4.0173577e-06 -0.019658873 0.15463972
-0.06712316 0.03639162 6.727373e-05 0.025706304 8.801415e-06 -0.020790901 -2.0035997e-09 0.00049366197
6.0440616e-06 0.017457385 6.4431936e-07 0.04108774 -0.03522386 7.758861e-07 0.00013540471 1.0166087e-07
0.044176225 3.135065e-06 -0.0139811495 0.10280202 2.594938e-08 -0.004787352 1.4276966e-08 0.008875203
0.040552627 -0.014802255 0.12080968 -0.05851722 0.034978032 -0.118925415 -5.3311965e-07 3.748396e-06
00000000: 6758 bc3b 4d2a 403c 4bbe efb9 9ecf dfbd
00000010: c302 8e33 306b 53b8 cf8e 8cbb 9601 1235
00000020: 90ef 9dba cc95 f4bd 473a 4ebd ff4a 94b7
00000030: 764c f23d 0bad 55bd 66a2 b53d dcfd af3c
00000040: af07 67b3 11b7 9fbb 78a5 a934 95ba d23c
00000050: cf38 0dbd 305e fbbc a772 3f3d ff27 8a3a
00000060: dfa3 2f3e 492a fb3c ddc3 533c 9965 ba33
00000070: 808e de3b d7cc 86b6 a50b a1bc e059 1e3e
00000080: de77 89bd 610f 153d 4f15 8d38 0796 d23c
00000090: caa9 1337 ae51 aabc b3af 09b1 1869 013a
000000a0: 18ce ca36 ca02 8f3c 4af5 2c35 9e4b 283d
000000b0: e546 10bd 7d46 5035 6dfb 0d39 a850 da33
000000c0: 21f2 343d 0264 5236 3111 65bc de89 d23d
000000d0: 4ae7 de32 38df 9cbb c346 7532 4d69 113c
000000e0: 831a 263d 2885 72bc 116b f73d c1af 6fbd
000000f0: 2045 0f3d 2b8f f3bd b41b 0fb5 f48c 7b36

module.bn1.running_var f4 [64]
0.00059524854 0.053676285 0.0028009317 0.3337964 7.991222e-14 4.358849e-08 0.18859239 4.8668907e-12
0.15388805 0.32586998 0.63019806 7.270802e-09 0.33576447 0.35247138 0.34574994 0.13965061
5.6975624e-14 0.65003335 1.6831775e-12 0.018873172 0.12507465 0.9934342 0.21549773 4.9526036e-05
0.6843385 0.33409822 1.4135884 1.4189267e-13 0.1666878 3.305998e-10 0.45237482 0.43628857
0.4398683 1.1438228 7.877258e-08 0.5280917 1.2607222e-09 0.006986447 9.096239e-17 4.781594e-06
6.9229533e-10 1.6500112 6.846282e-12 0.25342724 0.41531178 1.05287645e-11 3.2712228e-07 1.8505957e-13
0.04432772 1.7075324e-10 0.3563906 0.3977322 4.023889e-13 0.96487606 4.273556e-15 2.7588916
0.061307378 0.87009877 0.43460628 0.38369828 0.1421558 0.3106493 4.66536e-12 2.8526043e-10
00000000: 740a 1c3a aadb 5b3d d68f 373b 5de7 aa3e
00000010: 42f2 b329 0d36 3b33 5d1e 413e 0e3d ab2c
00000020: d494 1d3e 6ed8 a63e a954 213f a7d2 f931
00000030: 52e9 ab3e 2177 b43e 2306 b13e 9200 0f3e
00000040: 364c 8029 9668 263f dce2 ec2b e99b 9a3c
00000050: 9213 003e b451 7e3f 70ab 5c3e 2dba 4f38
00000060: cf30 2f3f ec0e ab3e 77f0 b43f c7c1 1f2a
00000070: 35b0 2a3e c9bf b52f ac9d e73e 3761 df3e
00000080: 6b36 e13e c968 923f af29 a933 0531 073f
00000090: b845 ad30 91ee e43b b8be d124 9471 a036
000000a0: f44b 3e30 9133 d33f d3e1 f02c 37c1 813e
000000b0: bfa3 d43e 5739 392d 589f af34 ca5b 502a
000000c0: fc90 353d c4be 3b2f d478 b63e 8ea3 cb3e
000000d0: 5a86 e22a 1e02 773f 99f8 9927 ae91 3040
000000e0: 721d 7b3d cbbe 5e3f b784 de3e 1a74 c43e
000000f0: 4a91 113e 6d0d 9f3e d425 a42c d6d2 9c2f

module.layer1.0.conv1.weight f4 [16, 64, 3, 3]
-0.0004643727 -0.0008265577 -0.00091169355 -0.0004646497 -0.0008164367 -0.00080202287 -0.0003811492 -0.0006374707
-0.00057238905 -0.025008358 0.031067336 -0.04095784 0.011469338 -0.023296459 -0.08402591 0.020616442
-0.013417397 -0.013378243 -0.0028967415 -0.0013423768 0.0020942374 -0.002658333 0.007741905 0.0052085035
0.0006539002 0.002574832 -0.0042768857 -0.09660253 -0.06540251 0.025305785 -0.0691398 -0.039075494
0.031211894 -0.027593516 -0.01157292 0.047969602 -9.175023e-09 -6.658243e-09 -8.514536e-09 -1.1520083e-09
-9.238703e-10 -3.816256e-09 5.967837e-09 8.031404e-09 2.4917586e-09 6.702559e-06 3.2520215e-06 -8.477265e-06
-2.6503233e-06 -7.4990703e-06 -1.07656115e-05 -1.0700504e-05 -1.4325264e-05 -6.179067e-06 0.121953934 -0.026677484
-0.0794039 0.041254472 -0.040342268 -0.0025924456 -0.10432478 -0.038700003 0.106352456 -3.6131585e-08
-5.1101253e-08 -5.4991283e-08 -3.0854945e-08 -3.7138978e-08 -3.9761414e-08 -2.7026827e-08 -4.3298822e-08 -5.7354534e-08
0.16808318 0.24808249 -0.25649476 0.11451569 -0.097171165 -0.26491946 -0.07280633 -0.16156754
0.06010877 -0.007294825 0.0036327755 -0.017337998 0.019207096 0.01979967 -0.024646992 -0.0030555695
-0.034252644 -0.069664165 0.059399724 0.15422738 -0.11260527 0.08602585 0.0032124026 -0.19497089
-0.044117156 -0.13612464 -0.031503897 3.2169457e-06 2.6538523e-06 3.1611714e-06 3.0510566e-06 5.8232325e-07
-2.5021868e-07 2.7295523e-06 -6.771236e-07 -1.4889506e-06 -0.04368271 0.025840739 0.0046206694 -0.06110251
0.036488626 0.035799935 -0.063452326 0.034285348 0.015673019 -0.12180816 -0.066764794 -0.04055465
-0.07661284 -0.023411682 0.020489326 -0.009044004 0.07254325 0.090114295 0.010415215 0.0017176276
-0.011389427 0.039614778 0.012685544 -0.0021061967 0.027558882 -0.05338291 -0.055399857 -0.18424983
-0.14901443 0.048858806 -0.17248747 0.061518677 0.19772474 0.07294861 0.1505948 -0.0034592887
-1.848559e-08 -2.0465416e-08 -1.7474639e-08 -1.0042085e-08 -9.8183754e-09 -5.2649347e-09 -1.2545641e-10 6.3305574e-09
1.4690086e-08 0.002806054 -0.035651427 -0.012841235 -0.014005041 0.0032522634 -0.02354641 0.024665738
0.021048237 -0.0021868516 -6.56176e-08 -5.340197e-08 -1.538114e-08 -4.9317887e-08 -2.5287047e-08 1.7778474e-08
-1.3084646e-08 2.1029775e-08 4.9416972e-08 -0.0043496992 -0.001080489 0.0066040484 0.00057223206 0.0015210871
0.008022143 -0.0011228666 -0.0012568894 0.0023059007 0.01709902 0.030630788 0.017108096 0.028211541
0.030240664 0.01737387 -0.004946291 0.0027296257 0.012267081 0.0172303 0.017802631 0.009748602
0.034593973 -0.022776784 -0.055793263 -0.015252296 -0.032989956 -0.031361032 -0.034530308 -0.014788847
-0.0017312956 0.0012577174 -0.0064879437 -0.0073181605 -0.0016648109 -0.058887012 -0.027088322 -0.0008644348
-0.0006786341 -0.00079715566 -0.00038132851 -0.00015493578 -0.0002915082 3.5961762e-05 0.00036714377 0.00023683427
0.00891825 -0.04665566 -0.07413391 -0.013243784 -0.030234532 -0.045527138 -0.0068857814 -0.03333156
-0.03238944 0.026358666 0.1015811 -0.019546611 -0.07179294 0.077441506 -0.0046153627 -0.014442047
-0.0061850967 -0.036793496 0.035419315 0.048851725 0.011742931 0.068158865 0.026574861 -0.06528934
-0.0046348386 -0.056777943 -0.07320419 1.3584529e-08 6.0307097e-09 -1.5757601e-08 1.342656e-08 -3.0079241e-09
-1.604553e-08 5.740788e-09 -8.882716e-09 -7.1539628e-09 0.15374848 0.058218483 -0.15180086 0.07862183
00000000: 0c77 f3b9 59ad 58ba b8fe 6eba 3a9c f3b9
00000010: 2406 56ba d83e 52ba fbd4 c7b9 ef1b 27ba
00000020: 610c 16ba 54de ccbc ed80 fe3c 68c3 27bd
00000030: e4e9 3b3c 37d8 bebc c715 acbd d0e3 a83c
00000040: a4d4 5bbc 6b30 5bbc 42d7 3dbb b1f2 afba
00000050: 793f 093b 6d37 2ebb ceaf fd3b 18ac aa3b
00000060: 806a 2b3a 83be 283b 1e25 8cbb 8cd7 c5bd
00000070: c0f1 85bd 144e cf3c 2b99 8dbd a00d 20bd
00000080: 16b0 ff3c cc0b e2bc 589c 3dbc c67b 443d
00000090: 2ea0 1db2 86c6 e4b1 5347 12b2 b054 9eb0
000000a0: 98f3 7db0 2520 83b1 a60d cd31 7dfa 0932
000000b0: 7b3b 2b31 8be6 e036 4e3d 5a36 9339 0eb7
000000c0: 35dc 31b6 86a0 fbb6 f39d 34b7 5186 33b7
000000d0: 8a56 70b7 c855 cfb6 fcc2 f93d bd8a dabc
000000e0: 839e a2bd 73fa 283d ef3d 25bd 05e6 29bb
000000f0: 3ba8 d5bd e583 1ebd 51cf d93d 192f 1bb3
00000100: 6c7a 5bb3 8e2f 6cb3 5f85 04b3 bd82 1fb3
00000110: 23c6 2ab3 9f28 e8b2 8ff7 39b3 fa55 76b3
00000120: ff1d 2c3e 5609 7e3e 4853 83be 3487 ea3d
00000130: ad01 c7bd 86a3 87be 7c1b 95bd f671 25be
00000140: 9d34 763d 6d09 efbb dc13 6e3b 6b08 8ebc
00000150: 3358 9d3c eb32 a23c 7de8 c9bc f33f 48bb
00000160: 804c 0cbd 16ac 8ebd 204d 733d c8ed 1d3e
00000170: 989d e6bd 522e b03d 2c87 523b 73a6 47be
00000180: 31b4 34bd 4264 0bbe 3b0a 01bd b5e2 5736
00000190: d618 3236 8324 5436 c1c0 4c36 f350 1c35
000001a0: cb55 86b4 5a2d 3736 94c3 35b5 f4d7 c7b5
000001b0: a4ec 32bd f5af d33c fc68 973b a046 7abd
000001c0: 1975 153d f4a2 123d 4bf3 81bd cb6e 0c3d
000001d0: b464 803c 8e76 f9bd fbbb 88bd a21c 26bd
000001e0: 31e7 9cbd dbc9 bfbc 3bd9 a73c 4d2d 14bc
000001f0: 8e91 943d d88d b83d 94a4 2a3c 0522 e13a
00000200: b89a 3abc 1b43 223d 07d7 4f3c 1e08 0abb
00000210: 2ac3 e13c 0aa8 5abd f6ea 62bd fdab 3cbe
00000220: 3d97 18be 2c20 483d 8ea0 30be 02fb 7b3d
00000230: 5b78 4a3e 1566 953d 8635 1a3e 3cb5 62bb
00000240: 3eca 9eb2 edcb afb2 231b 96b2 8f85 2cb2
00000250: acad 28b2 dbe6 b4b1 d7f0 09af 2c84 d931
00000260: ae5f 7c32 c6e5 373b 3b07 12bd 0b64 52bc
00000270: 6675 65bc ed23 553b 67e4 c0bc cd0f ca3c
00000280: 5a6d ac3c 4851 0fbb a8e9 8cb3 165c 65b3
00000290: 7c1f 84b2 97d1 53b3 ce36 d9b2 47b7 9832
000002a0: e2ca 60b2 f7a4 b432 893e 5433 ec87 8ebb
000002b0: 329f 8dba c666 d83b d801 163a 375f c73a
000002c0: 4e6f 033c 272d 93ba 36be a4ba 981e 173b
000002d0: 3e13 8c3c 6bed fa3c 4726 8c3c e41b e73c
000002e0: 45bb f73c a553 8e3c 7f14 a2bb 85e3 323b
000002f0: defb 483c 8f26 8d3c d3d6 913c 9ab8 1f3c
00000300: 69b2 0d3d 6196 babc 7a87 64bd c4e4 79bc
00000310: 7a20 07bd 6d74 00bd a76f 0dbd ec4c 72bc
00000320: a4ec e2ba fed9 a43a d198 d4bb 2ecd efbb
00000330: c935 daba 8233 71bd 54e8 ddbc 3d9b 62ba
00000340: 5de6 31ba 36f8 50ba 0ced c7b9 4276 22b9
00000350: 91d5 98b9 a6d5 1638 347d c039 b756 7839
00000360: da1d 123c 011a 3fbd 85d3 97bd 75fc 58bc
00000370: 69ae f7bc aa7a 3abd 1fa2 e1bb ad86 08bd
00000380: caaa 04bd 21ee d73c c009 d03d 3720 a0bc
00000390: 2d08 93bd a799 9e3d 783c 97bb 569e 6cbc
000003a0: 5aac cabb c7b4 16bd d813 113d bf18 483d
000003b0: 6c65 403c e096 8b3d 86b3 d93c 6bb6 85bd
000003c0: d8df 97bb fd8f 68bd 14ec 95bd 6461 6932
000003d0: af36 cf31 555b 87b2 a3aa 6632 f6b3 4eb1
000003e0: 7ed4 89b2 8140 c531 999a 18b2 ecce f5b1
000003f0: 3e70 1d3e 8176 6e3d af71 1bbe 7b04 a13d

module.layer1.0.bn1.weight f4 [16]
0.4444684 0.6841989 0.5448644 0.44300696 0.44294262 0.3468159 0.55672324 0.4548868
0.4153227 0.61065775 0.3987812 0.48382825 0.38647807 0.4545472 0.56993145 0.5704617
00000000: 5d91 e33e a927 2f3f 3c7c 0b3f cfd1 e23e
00000010: 60c9 e23e db91 b13e 6a85 0e3f ece6 e83e
00000020: 2da5 d43e 1154 1c3f 0d2d cc3e 56b8 f73e
00000030: 74e0 c53e 69ba e83e 07e7 113f c709 123f

module.layer1.0.bn1.bias f4 [16]
-0.17704906 -0.06951082 -0.13128541 -0.1284518 -0.07660687 -0.049213257 -0.071552895 -0.13163564
-0.08317624 -0.055504788 -0.07476113 -0.066940516 -0.10786771 -0.0587252 -0.107888 -0.10191344
00000000: 594c 35be b05b 8ebd af6f 06be de88 03be
00000010: 10e4 9cbd d793 49bd 538a 92bd 7ecb 06be
00000020: 4e58 aabd fd58 63bd 5d1c 99bd 1c18 89bd
00000030: bfe9 dcbd d689 70bd 62f4 dcbd feb7 d0bd

module.layer1.0.bn1.running_mean f4 [16]
-0.21294676 -0.13633569 -0.14030676 -0.28754532 -0.08871586 -0.1523118 -0.003572122 -0.1441072
-0.14356558 -0.14694354 -0.2058078 -0.111129 -0.08027355 -0.14056389 -0.17610206 -0.10752526
00000000: b70e 5abe 959b 0bbe 93ac 0fbe 2439 93be
00000010: a9b0 b5bd a0f7 1bbe 431a 6abb d690 13be
00000020: db02 13be 5e78 16be 48bf 52be 9a97 e3bd
00000030: 7566 a4bd fbef 0fbe 1954 34be 3436 dcbd

module.layer1.0.bn1.running_var f4 [16]
0.055325262 0.5557864 0.21991366 0.08010218 0.11276714 0.05441735 0.24599114 0.12451183
0.12005738 0.7190857 0.061431278 0.17476636 0.049151078 0.1436588 0.2566415 0.22666429
00000000: be9c 623d 0448 0e3f 0c31 613e 9d0c a43d
00000010: 75f2 e63d bae4 5e3d 1ae5 7b3e 0f00 ff3d
00000020: a5e0 f53d 0016 383f 5d9f 7b3d f4f5 323e
00000030: a452 493d 4b1b 133e 8466 833e af1a 683e

module.layer1.0.conv2.weight f4 [16, 16, 3, 3]
-0.016147248 -0.037100054 0.007622755 -0.07824078 -0.032860015 0.012732731 -0.052603092 -0.008019002
-0.06731017 0.01034011 -0.039246466 -0.062892996 -0.08095194 -0.10954638 -0.076797426 -0.12964655
-0.1257522 -0.1436398 -0.05563394 -0.12116383 0.032089997 0.0041858563 -0.06599763 0.004923479
0.0431184 -0.016543208 -0.07434151 0.14366569 0.20567009 0.11445433 0.018468821 0.101767875
0.043047205 -0.0087810885 -0.0202795 0.004321374 0.043220017 -0.0044016587 0.0022082385 0.014676788
0.013855295 -0.026553145 -0.028417347 -0.049053714 0.0027217995 -0.029426405 -0.05327729 0.0014195158
-0.025988795 -0.078093484 0.033437204 0.12579316 -0.015645947 -0.061725195 0.05940474 -0.10296293
-0.13904566 -0.060961068 -0.07180847 -0.0093025 -0.0036747796 -0.0014045532 0.009866389 0.05988205
0.002359333 0.0037971758 0.017208064 -0.01392951 0.0245346 0.004870518 0.033898324 0.13086396
0.011051571 0.032653917 -0.006844186 -0.0321859 -0.027208788 0.009463827 -0.10578242 -0.08014956
-0.013676442 -0.010954521 0.0035747406 0.028697006 -0.014847721 -0.043034725 -0.012799924 0.07514645
-0.012175728 0.041885667 0.02589392 0.03054813 0.02687374 -0.0068483856 0.05394919 0.014315461
0.00789733 0.0065356367 -0.0025030782 0.07797771 -0.05586764 -0.059302993 0.018054783 -0.064959235
-0.107982144 -0.008086511 -0.04205841 0.020802792 0.0125010125 -0.10321523 -0.031318992 0.08332098
-0.0045658005 -0.07985931 -0.0059637856 0.057491362 -0.0067598266 0.03019685 -0.0057369503 -0.034388494
0.014813554 0.055795763 0.052726198 0.09936699 0.13117234 0.18181092 0.0043397537 -0.015243552
-0.008513625 0.03401471 -0.04492294 -0.01580185 0.050667915 0.011453453 0.03972232 0.018834664
0.13461821 0.082917 0.0084200725 0.021208668 0.01932246 0.041410085 0.061579708 0.024846708
-0.0104046315 -0.002231835 0.046519164 0.04301145 0.019877503 -0.0038349824 0.017816368 -0.006903996
-0.04882003 -0.04758451 -0.23026583 -0.20877479 -0.16055813 -0.5066578 -0.3765962 -0.15065746
-0.28501642 -0.21498877 0.016388128 -0.013383486 0.025906287 0.077463046 0.011706973 -0.03226982
0.13313289 0.09757545 0.10213787 -0.0689717 -0.10315392 0.024532981 0.03054201 -0.04796409
0.06452442 0.1535762 0.08482146 0.15931295 0.011148988 0.105583236 0.15648444 0.14229278
0.1013531 0.0615953 0.057517257 -0.041381363 -0.05093582 0.073286496 0.066867605 0.021987854
0.0640462 0.080359206 0.0564237 0.10329251 0.033612024 0.005039844 -0.12269795 -0.15535963
-0.12647274 -0.04745449 -0.064178325 -0.04560828 0.07913233 0.13594928 0.10565709 0.09893688
0.10791169 0.050311048 0.07032609 0.015522494 0.035506144 -0.055214003 -0.14439084 -0.11928945
-0.04496551 0.004654589 0.02984414 -0.03395514 0.00030209823 0.014243026 -0.110173374 0.006189572
-0.0012737386 0.031779826 0.051060606 0.06044345 0.046702042 0.04612153 0.028425481 -0.017498264
0.03311659 -0.0011659897 -0.16935706 -0.14084594 -0.1813739 -0.19645002 -0.1650138 -0.16573673
-0.022461347 0.014526794 -0.07043632 0.14566004 0.062379222 0.027725076 0.16929792 0.033177577
0.03184849 0.054661423 0.06600072 0.012452724 -0.028505348 -0.11795315 -0.16614144 -0.033434566
00000000: 3c47 84bc 3af6 17bd 4ec8 f93b b43c a0bd
00000010: 3998 06bd f29c 503c 5776 57bd 2262 03bc
00000020: ead9 89bd 9169 293c e7c0 20bd 0bce 80bd
00000030: 21ca a5bd da59 e0bd f847 9dbd 11c2 04be
00000040: 2fc5 00be 5016 13be 6ae0 63bd be24 f8bd
00000050: cd70 033d 8229 893b c429 87bd 2355 a13b
00000060: eb9c 303d 9f85 87bc 5d40 98bd 191d 133e
00000070: 2e9b 523e 0867 ea3d ed4b 973c ad6b d03d
00000080: 4452 303d 8ede 0fbc 3221 a6bc 509a 8d3b
00000090: 7907 313d ca3b 90bb 18b8 103b e976 703c
000000a0: 5201 633c fb85 d9bc 7fcb e8bc 8cec 48bd
000000b0: 3860 323b a50f f1bc 4a39 5abd 0c0f ba3a
000000c0: 74e6 d4bc 7aef 9fbd 73f5 083d eccf 003e
000000d0: ee2b 80bc 8fd3 7cbd 6252 733d 3bde d2bd
000000e0: fc61 0ebe 50b2 79bd 5210 93bd 8369 18bc
000000f0: 92d4 70bb fc18 b8ba a3a6 213c e146 753d
00000100: 0a9f 1a3b 0ada 783b edf7 8c3c 9938 64bc
00000110: c9fc c83c de98 9f3b f8d8 0a3d 3401 063e
00000120: a611 353c 1dc0 053d 3245 e0bb 5dd5 03bd
00000130: f7e4 debc 2b0e 1b3c 74a4 d8bd 7425 a4bd
00000140: 2813 60bc 977a 33bc 3246 6a3b fc15 eb3c
00000150: db43 73bc 2e45 30bd c6b6 51bc 62e6 993d
00000160: b47c 47bc 4e90 2b3d 7c1f d43c 1240 fa3c
00000170: 5126 dc3c 6c68 e0bb d3f9 5c3d 658b 6a3c
00000180: ce63 013c e528 d63b af0a 24bb c7b2 9f3d
00000190: 77d5 64bd b2e7 72bd a0e7 933c 5909 85bd
000001a0: be25 ddbd 497d 04bc 7045 2cbd 9e6a aa3c
000001b0: 0cd1 4c3c 8262 d3bd 5848 00bd 31a4 aa3d
000001c0: b69c 95bb 478d a3bd dc6b c3bb 107c 6b3d
000001d0: 8981 ddbb 625f f73c 07fd bbbb f3da 0cbd
000001e0: 8cb4 723c 198a 643d 6df7 573d ec80 cb3d
000001f0: 0b52 063e a42c 3a3e 7e34 8e3b 17c0 79bc
00000200: bb7c 0bbc 0253 0b3d 1e01 38bd e272 81bc
00000210: 2989 4f3d 44a7 3b3c dfb3 223d 274b 9a3c
00000220: 5bd9 093e 63d0 a93d 58f4 093c cdbd ad3c
00000230: 234a 9e3c 9f9d 293d 013b 7c3d 538b cb3c
00000240: 3078 2abc fa43 12bb e18a 3e3d c62c 303d
00000250: 25d6 a23c 5454 7bbb a2f3 913c eb3a e2bb
00000260: 83f7 47bd fae7 42bd ceca 6bbe 0fc9 55be
00000270: 5a69 24be 53b4 01bf 38d1 c0be f345 1abe
00000280: aced 91be 0426 5cbe 6540 863c 6946 5bbc
00000290: 6c39 d43c f2a4 9e3d 9bce 3f3c 5c2d 04bd
000002a0: fd53 083e a3d5 c73d a92d d13d 0941 8dbd
000002b0: 5d42 d3bd 64f9 c83c 3d33 fa3c fe75 44bd
000002c0: 6125 843d 1443 1d3e e0b6 ad3d ef22 233e
000002d0: 3faa 363c 063c d83d 753d 203e 33b5 113e
000002e0: 3792 cf3d 5a4b 7c3d 3797 6b3d 817f 29bd
000002f0: 14a2 50bd 3b17 963d e2f1 883d df1f b43c
00000300: a72a 833d 5e93 a43d 8a1c 673d 068b d33d
00000310: c3ac 093d 4725 a53b 1049 fbbd 9816 1fbe
00000320: 1282 01be a45f 42bd ed6f 83bd bfcf 3abd
00000330: 2210 a23d 4a36 0b3e bf62 d83d 6b9f ca3d
00000340: ce00 dd3d f512 4e3d 2007 903d 0f52 7e3c
00000350: e46e 113d 1428 62bd 31db 13be 074e f4bd
00000360: c12d 38bd 8685 983b b37b f43c 8b14 0bbd
00000370: f062 9e39 955b 693c 94a2 e1bd e5d1 ca3b
00000380: 93f3 a6ba 902b 023d ed24 513d 8d93 773d
00000390: a44a 3f3d eee9 3c3d 8edc e83c 8558 8fbc
000003a0: 43a5 073d 1fd4 98ba f06b 2dbe eb39 10be
000003b0: 14ba 39be 322a 49be 61f9 28be e4b6 29be
000003c0: dc00 b8bc ca01 6e3c eb40 90bd e827 153e
000003d0: 5b81 7f3d b31f e33c 6f5c 2d3e 36e5 073d
000003e0: 9073 023d a8e4 5f3d 632b 873d 8306 4c3c
000003f0: 0c84 e9bc 6c91 f1bd fb20 2abe aff2 08bd

module.layer1.0.bn2.weight f4 [16]
0.31002015 0.5151312 0.19822764 0.49183506 0.16701907 0.66978765 0.36636797 0.20484659
0.48503622 0.3467094 0.4124739 0.63316226 0.49093235 0.43974137 0.33955374 0.21420367
00000000: f6ba 9e3e a3df 033f 30fc 4a3e ced1 fb3e
00000010: 0c07 2b3e 3477 2b3f 9594 bb3e 4ec3 513e
00000020: ab56 f83e e583 b13e c72f d33e ec16 223f
00000030: 7c5b fb3e c825 e13e fdd9 ad3e 3558 5b3e

module.layer1.0.bn2.bias f4 [16]
-0.03100181 0.2013528 0.15811716 0.12675734 -0.030530341 0.053902313 -0.007679914 0.12754616
0.094947554 0.02085372 0.14763066 0.029255936 0.14394948 -0.023272807 0.20008248 0.14009742
00000000: 82f7 fdbc 6e2f 4e3e 77e9 213e adcc 013e
00000010: c41a fabc acc8 5c3d caa7 fbbb 769b 023e
00000020: dd73 c23d 6cd5 aa3c 7e2c 173e 25aa ef3c
00000030: 7e67 133e 9da6 bebc 6ce2 4c3e b375 0f3e

module.layer1.0.bn2.running_mean f4 [16]
-0.07174114 -0.16423115 0.15458542 -0.28327125 0.002916231 -0.42315492 0.058612853 0.15099148
-0.32056776 0.0481228 -0.29819292 -0.2789805 -0.26561302 -0.0063739223 0.17810227 0.27930918
00000000: 05ed 92bd 362c 28be a44b 1e3e ee08 91be
00000010: 3d1e 3f3b c3a7 d8be 0814 703d 839d 1a3e
00000020: 7521 a4be 6a1c 453d beac 98be 88d6 8ebe
00000030: 6efe 87be 56dc d0bb 7160 363e 9d01 8f3e

module.layer1.0.bn2.running_var f4 [16]
0.060175806 0.28131798 0.048381265 0.17470968 0.025580687 0.27022484 0.058767695 0.054398622
0.14031278 0.061062377 0.11669044 0.21811736 0.13417934 0.08366264 0.115816906 0.07122568
00000000: e87a 763d e908 903e 6f2b 463d 18e7 323e
00000010: 978e d13c e95a 8a3e 65b6 703d 17d1 5e3d
00000020: 27ae 0f3e 8b1c 7a3d 66fb ee3d 285a 5f3e
00000030: 4f66 093e 5157 ab3d 6a31 ed3d c5de 913d

module.layer1.0.shortcut.0.weight f4 [16, 64, 1, 1]
0.00076690916 -0.023013627 -0.02656659 -0.012718384 -2.1244638e-08 -4.8761435e-06 0.046343505 -7.6065696e-08
0.0048425845 -0.050956678 -0.03914696 -1.4466223e-05 0.072426364 0.026505943 0.024695655 0.025453972
-3.1409364e-09 -0.031475246 -2.1686892e-09 -0.02660968 0.05186989 -0.3497277 -0.036112484 -0.000109363355
-0.10464554 -0.012612887 0.24932529 2.4435968e-08 0.036373343 -6.5490707e-07 0.10320113 -0.054384515
0.014937592 -0.022966074 -1.7037813e-05 -0.030892372 -6.234828e-07 -0.0017121043 7.023396e-11 -5.2927353e-05
1.1782995e-06 -0.069291964 -2.5132854e-08 -0.021229768 -0.021444168 3.062851e-08 3.4009347e-06 -3.4910407e-08
0.053267945 1.1665231e-07 0.0320385 0.038895138 -7.034849e-09 0.03238886 5.3382065e-10 -0.60109776
-0.056457557 0.05864167 -0.15628126 0.027338164 -0.045210678 0.025838936 9.7644296e-08 -4.9280453e-07
-0.0003051884 -0.071594164 0.0094382 0.0012486642 -3.5897905e-08 2.5374482e-05 0.05964754 -2.2799854e-08
-0.0067205313 -0.14324473 -0.10662567 2.290127e-07 0.06606043 0.13180874 -0.14749297 0.009864205
2.260894e-08 -0.0036174012 1.0223828e-08 -0.0022404755 -0.03331113 -0.17036456 -0.05470919 0.0009408187
-0.03546859 0.023066204 -0.07838039 -6.2035435e-09 -0.12028711 -5.5648574e-08 -0.21809429 0.1059909
0.0282389 0.0039628786 -3.2152817e-05 0.06900893 1.1762531e-06 -0.0012210761 2.0465467e-09 -8.407456e-05
-1.6934246e-07 0.10346327 8.132619e-08 0.055966984 -0.032062575 -1.8598689e-08 4.4392555e-06 6.0117884e-09
-0.032059938 -9.72908e-07 -0.08332145 -0.1271286 6.172379e-08 -0.27656183 -7.3253487e-10 -0.23472407
-0.029737802 -0.2139526 0.03444066 -0.065211624 0.0578322 0.017231476 4.476544e-08 -5.92281e-07
0.0012972737 -0.05100253 0.010159454 0.24406745 1.2859378e-08 3.7967344e-05 0.041552767 3.2059438e-07
0.08052852 0.30038813 0.075215854 3.4968793e-06 0.36445993 0.28447485 0.0029510127 0.1135066
4.5672866e-08 -0.026725274 1.1036784e-07 0.051247533 0.10609307 0.05797187 0.050746895 0.002479261
0.17769597 -0.008164891 -0.0018883327 4.9604072e-08 -0.049248707 1.8833498e-06 -0.034580667 0.06351557
0.19495896 -0.079601236 4.3681084e-05 -0.061389476 3.4604598e-06 0.0038375726 1.2667964e-09 0.00019489182
2.6033752e-06 -0.089870594 3.4017583e-07 -0.0071723512 0.02696226 4.288096e-07 6.9267095e-05 -3.9575814e-09
0.046755668 1.1120333e-06 0.07363228 0.05417017 -2.4122658e-08 0.056848004 3.745649e-09 -0.016886918
0.035067596 -0.0663879 0.058352705 0.043650288 0.07350321 0.2640108 2.3778853e-07 4.893798e-06
-4.620896e-06 0.008885972 -0.0035533851 0.009013047 -1.8524396e-08 -4.7087356e-06 -0.007909294 -2.8324187e-08
0.026853507 -0.011941191 0.030226182 -1.5866696e-06 -0.026245516 -0.009044076 0.0027178475 0.0041039684
6.1027468e-09 -0.008540019 -6.546875e-08 -0.003350516 -0.010652571 -0.0011502141 0.0073547014 -3.137875e-05
0.008293574 0.07540949 0.0024788918 -1.2148771e-08 0.0017423776 1.0327276e-07 -0.0013792033 -0.00074318773
-0.021184744 -0.0015347552 -9.288273e-06 0.0076877885 2.9610106e-07 -3.055557e-05 5.576407e-10 -1.7448781e-05
-3.8613638e-07 0.015403934 -8.3554916e-08 -0.0064289453 -0.0491147 -1.8256202e-07 3.5218295e-06 -1.895415e-09
-0.005785272 -2.146421e-07 0.0002697972 -0.00092886604 4.3868905e-08 0.002124126 -1.2445202e-09 -0.0029807172
0.00029753585 0.0025935657 0.006878182 -0.028495412 -0.01255418 -0.00070907164 -3.0705657e-08 -4.227096e-07
00000000: 670a 493a 1387 bcbc 2da2 d9bc c560 50bc
00000010: 747d b6b2 c19d a3b6 b0d2 3d3d 8f59 a3b3
00000020: 8bae 9e3b f3b7 50bd 9058 20bd f4b3 72b7
00000030: 4654 943d fe22 d93c 8b4e ca3c d984 d03c
00000040: f0d7 57b1 30ec 00bd fc07 15b1 8bfc d9bc
00000050: 8675 543d 820f b3be afea 13bd 015a e5b8
00000060: 6750 d6bd 48a6 4ebc 214f 7f3e 43e7 d132
00000070: 37fc 143d dfcc 2fb5 1d5b d33d 4cc2 5ebd
00000080: cdbc 743c 5923 bcbc 6dec 8eb7 0012 fdbc
00000090: 695d 27b5 b068 e0ba 3472 9a2e 50fe 5db8
000000a0: 1026 9e35 f2e8 8dbd bbe3 d7b2 0dea adbc
000000b0: aeab afbc 678c 0333 9d3b 6436 66f0 15b3
000000c0: 7d2f 5a3d 4982 fa33 cd3a 033d 8250 1f3d
000000d0: 30b7 f1b1 2eaa 043d 4abc 1230 8be1 19bf
000000e0: 0a40 67bd 3f32 703d 3208 20be 49f4 df3c
000000f0: d52e 39bd 2dac d33c 85b0 d133 4549 04b5
00000100: b201 a0b9 f69f 92bd aea2 1a3c 38aa a33a
00000110: 2a2e 1ab3 49db d437 fb50 743d 69d9 c3b2
00000120: e737 dcbb bfae 12be 8f5e dabd 88e6 7534
00000130: b14a 873d dff8 063e 6608 17be 799d 213c
00000140: 9635 c232 ec11 6dbb dfa4 2f32 f1d4 12bb
00000150: 4071 08bd 0c74 2ebe be16 60bd 46a1 763a
00000160: 8347 11bd 56f5 bc3c e685 a0bd f226 d5b1
00000170: 1759 f6bd 4102 6fb3 1c54 5fbe c211 d93d
00000180: 4455 e73c 09db 813b d3db 06b8 8e54 8d3d
00000190: c0df 9d35 840c a0ba 3ba3 0c31 3051 b0b8
000001a0: 80d4 35b4 8de4 d33d 8ca5 ae33 a33d 653d
000001b0: 0c54 03bd f3c2 9fb2 eaf4 9436 4090 ce31
000001c0: 4851 03bd dd94 82b5 70a4 aabd 002e 02be
000001d0: 038d 8433 8399 8dbe 8f5b 49b0 825b 70be
000001e0: b19c f3bc 6416 5bbe a611 0d3d ac8d 85bd
000001f0: 75e1 6c3d 0629 8d3c 1f44 4033 3efd 1eb5
00000200: 4809 aa3a 07e8 50bd d773 263c d1ec 793e
00000210: 24ec 5c32 203f 1f38 3c33 2a3d 281e ac34
00000220: 23ec a43d 79cc 993e c50a 9a3d eeab 6a36
00000230: 7e9a ba3e b0a6 913e c765 413b 2676 e83d
00000240: d929 4433 f6ee dabc 5d03 ed33 efe8 513d
00000250: 5347 d93d e973 6d3d fadb 4f3d 197b 223b
00000260: eff5 353e 09c6 05bc ee81 f7ba 410c 5533
00000270: 03b9 49bd 68c7 fc35 75a4 0dbd 7314 823d
00000280: 52a3 473e f905 a3bd 3536 3738 8873 7bbd
00000290: 3f3a 6836 c97f 7b3b 701b ae30 e05b 4c39
000002a0: a5b5 2e36 130e b8bd 69a1 b634 0b06 ebbb
000002b0: f5df dc3c 2537 e634 7d43 9138 41fb 87b1
000002c0: df82 3f3d 2c41 9535 85cc 963d 8ae1 5d3d
000002d0: 4936 cfb2 74d9 683d 14b3 8031 6f56 8abc
000002e0: 0aa3 0f3d 61f6 87bd 3f03 6f3d a5ca 323d
000002f0: da88 963d 6c2c 873e d052 7f34 6835 a436
00000300: 320d 9bb6 7896 113c e9df 68bb 76ab 133c
00000310: 941f 9fb2 bbff 9db6 fc95 01bc 8c4d f3b2
00000320: e3fb db3c fca4 43bc e69c f73c 8df5 d4b5
00000330: d600 d7bc 9b2d 14bc ea1d 323b 957a 863b
00000340: 54b0 d131 70eb 0bbc d397 8cb3 5594 5bbb
00000350: 1f88 2ebc c8c2 96ba b5ff f03b ad9c 03b8
00000360: c5e1 073c 4a70 9a3d e774 223b dcb6 50b2
00000370: 7e60 e43a cdc6 dd33 62c6 b4ba 7cd2 42ba
00000380: a18b adbc d729 c9ba d4d4 1bb7 d8e9 fb3b
00000390: d2f7 9e34 cb28 00b8 7a48 1930 f95e 92b7
000003a0: 2e4e cfb4 c860 7c3c cd6e b3b3 e7a9 d2bb
000003b0: 7f2c 49bd 4406 44b4 9258 6c36 7e40 02b1
000003c0: 6192 bdbb 5f78 66b4 9173 8d39 257f 73ba
000003d0: 5f6a 3c33 ec34 0b3b a90b abb0 2358 43bb
000003e0: 96fe 9b39 d0f8 293b 5f62 e13b 366f e9bc
000003f0: 0cb0 4dbc fee0 39ba 3ae1 03b3 c4f0 e2b4

module.layer1.0.shortcut.1.weight f4 [16]
0.611999 0.23254646 0.26099965 -0.03436254 0.49910375 0.08692513 0.30849975 0.26287037
-0.052197803 0.24820581 0.088591054 0.12891607 0.13746463 0.11840109 -0.00026524693 0.36615905
00000000: f7ab 1c3f a920 6e3e bfa1 853e bcbf 0cbd
00000010: 878a ff3e cd05 b23d aef3 9d3e f296 863e
00000020: 5dcd 55bd aa29 7e3e 3a6f b53d 9302 043e
00000030: 87c3 0c3e 457c f23d d710 8bb9 3379 bb3e

module.layer1.0.shortcut.1.bias f4 [16]
-0.03100181 0.2013528 0.15811716 0.12675734 -0.030530341 0.053902313 -0.007679914 0.12754616
0.094947554 0.02085372 0.14763066 0.029255936 0.14394948 -0.023272807 0.20008248 0.14009742
00000000: 82f7 fdbc 6e2f 4e3e 77e9 213e adcc 013e
00000010: c41a fabc acc8 5c3d caa7 fbbb 769b 023e
00000020: dd73 c23d 6cd5 aa3c 7e2c 173e 25aa ef3c
00000030: 7e67 133e 9da6 bebc 6ce2 4c3e b375 0f3e

module.layer1.0.shortcut.1.running_mean f4 [16]
-0.120094344 -0.16998455 0.19135514 0.017771574 -0.1735447 -0.11630128 -0.035120443 0.038671166
0.01755211 -0.0148135945 -0.04802806 -0.14336921 -0.052110277 -0.12383946 -0.010706512 0.09372781
00000000: 06f4 f5bd 6e10 2ebe 9af2 433e b195 913c
00000010: b4b5 31be 5e2f eebd 74da 0fbd a865 1e3d
00000020: 71c9 8f3c b8b4 72bc 12b9 44bd 61cf 12be
00000030: 9671 55bd 8b9f fdbd 5e6a 2fbc 5ef4 bf3d

module.layer1.0.shortcut.1.running_var f4 [16]
0.031203538 0.023435201 0.01033284 0.002058401 0.015475309 0.0060424185 0.00988396 0.014617096
0.0015828869 0.011299064 0.0027282152 0.009650281 0.008499915 0.004312057 0.0016188334 0.020584347
00000000: 909e ff3c 2efb bf3c 124b 293c 3de6 063b
00000010: 278c 7d3c 7bff c53b 55f0 213c 8b7c 6f3c
00000020: df78 cf3a b61f 393c dbcb 323b 361c 1e3c
00000030: 3a43 0b3c 284c 8d3b 092f d43a 81a0 a83c

module.layer2.0.conv1.weight f4 [32, 16, 3, 3]
0.048412826 0.0060994076 -0.06766532 -0.0010098816 0.011982586 0.0357608 -0.10812139 -0.09587236
0.012006014 -0.13696675 -0.09355203 -0.015380972 -0.014948875 -0.020741547 0.01666057 -0.0016647547
0.0351409 0.049915753 0.09646793 0.05336392 0.09622029 -0.08922768 -0.14584625 -0.05462199
-0.074456915 -0.13282497 -0.08570453 -0.0015309457 -0.03390878 -0.05930591 -0.0079345545 0.006445779
-0.009934503 -0.04294517 -0.002474301 -0.026514467 0.0076911906 0.0032871438 -0.08953857 0.014391202
0.065965064 0.030243685 -0.040625162 0.048965145 0.030787466 -0.029756082 -0.010012907 -0.004241206
-0.04961829 -0.042038955 -0.066503435 0.004100744 0.025275588 1.6334311e-06 0.063013226 0.1284256
0.06859547 0.038770694 0.09531942 0.1001048 0.016503228 0.08172221 0.09891223 0.056251213
0.04350183 0.058468275 0.029698955 -0.0027124204 0.04114491 -0.026790926 -0.06895047 -0.035803553
-0.14267702 -0.07459884 0.0695371 -0.042924386 0.0087386165 0.0670335 -0.05384975 0.03248242
0.029927667 0.027411502 0.06886874 0.09073721 -0.107433185 -0.026371893 -0.0040750587 -0.12717004
-0.119935475 -0.103473306 -0.015594135 -0.106803365 -0.11396348 0.0052056126 -0.03735576 -0.07791184
-0.027776835 -0.115679175 -0.18924452 -0.034075834 -0.045306362 0.04096451 0.025650855 -0.017367696
0.04830484 0.09548966 0.09209728 0.072673835 -0.06684769 0.0063318014 0.06084405 0.071174055
0.042398833 0.059746712 0.17207766 0.14381735 0.042291373 -0.062904954 -0.04111827 -0.040272694
-0.11233349 -0.05419824 -0.043730438 -0.084598176 -0.03264402 0.010310317 -0.06353656 -0.023081103
0.011772497 -0.054419436 -0.038052194 0.008747992 -0.13619317 -0.14086826 -0.07213324 -0.06299719
-0.09354913 0.0045411084 -0.06874344 -0.14834793 -0.07378221 0.09503421 -0.016057443 0.0006782894
-0.021508023 0.060265675 0.0738587 -0.018105252 0.024909046 0.0701089 0.037661508 0.09427092
0.081191875 0.11460263 0.08055376 0.03303286 0.010277381 -0.0578448 -0.055686835 0.008849286
-0.04653487 -0.07875044 0.009489137 0.067506365 0.085973516 -0.06342426 -0.046729527 -0.037884507
-0.069848634 -0.04800391 -0.0657702 -0.037511013 -0.17961681 -0.15382153 0.061625265 -0.011800859
-0.052597374 0.22742103 0.23838338 0.20952408 -0.036216218 -0.1100168 -0.15599827 0.040030748
-0.019839946 -0.061111383 0.108087756 0.10457327 0.05175445 -0.13161995 -0.13486184 -0.15464033
0.01861702 0.044719867 0.0025222483 0.11549249 0.23079595 0.19601803 -0.0039603524 0.069112435
-0.015704457 0.07438091 0.08255506 0.020226289 0.04391362 0.08223564 0.007523257 0.077839784
0.0018675943 -0.036416 0.039778855 0.00496656 0.016701404 -0.006187813 -0.03328987 -0.014138718
0.016763799 -0.006366567 -0.054683328 0.045240294 0.038106915 -0.07693054 0.15428251 0.11836035
0.0033127982 -0.03493445 -0.04608101 -0.03924075 -0.0031895486 -0.038205285 -0.111993514 0.024820864
-0.06681919 -0.11379766 -0.08270887 -0.080671884 -0.018764775 -0.18201849 -0.10043856 -0.023920083
-0.06498483 -0.0049917526 0.06277593 0.020879224 0.0057205386 0.062223073 -0.008487638 -0.032165125
-0.027556095 -0.025279086 -0.102322616 -0.08469825 -0.020336818 -0.053412914 -0.01484365 -0.010936352
00000000: 874c 463d 8add c73b 1e94 8abd 015e 84ba
00000010: 9c52 443c eb79 123d bf6e ddbd ba58 c4bd
00000020: dfb4 443c 0341 0cbe 3598 bfbd 7900 7cbc
00000030: 20ec 74bc 2dea a9bc bf7b 883c e633 daba
00000040: e8ef 0f3d 7674 4c3d fa90 c53d 2094 5a3d
00000050: 250f c53d 00bd b6bd b858 15be 4fbb 5fbd
00000060: de7c 98bd 4503 08be db85 afbd 03aa c8ba
00000070: efe3 0abd c1ea 72bd efff 01bc 1d37 d33b
00000080: 53c4 22bc 46e7 2fbd e227 22bb de34 d9bc
00000090: 6206 fc3b 1f6d 573b ff5f b7bd 13c9 6b3c
000000a0: b118 873d 9bc1 f73c 9266 26bd ad8f 483d
000000b0: ff35 fc3c 07c3 f3bc 2d0d 24bc d1f9 8abb
000000c0: 8c3c 4bbd 0a31 2cbd f432 88bd 895f 863b
000000d0: c00e cf3c 443c db35 140d 813d 0082 033e
000000e0: c87b 8c3d 05ce 1e3d d436 c33d bf03 cd3d
000000f0: c731 873c f95d a73d 7f92 ca3d ac67 663d
00000100: fa2e 323d 6e7c 6f3d 394b f33c ddc2 31bb
00000110: 9187 283d a578 dbbc e735 8dbd bfa6 12bd
00000120: ed19 12be 47c7 98bd 7869 8e3d 7bd1 2fbd
00000130: 6a2c 0f3c dc48 893d 8e91 5cbd 490c 053d
00000140: de2a f53c 168e e03c 0e0b 8d3d 6ed4 b93d
00000150: ee05 dcbd de09 d8bc 1288 85bb dd38 02be
00000160: bba0 f5bd d0e9 d3bd 8b7e 7fbc b9bb dabd
00000170: af65 e9bd d893 aa3b 5a02 19bd 3e90 9fbd
00000180: 3f8c e3bc 34e9 ecbd 51c9 41be 1a93 0bbd
00000190: 2a93 39bd 67ca 273d be21 d23c b346 8ebc
000001a0: 4cdb 453d 1590 c33d 809d bc3d 05d6 943d
000001b0: 71e7 88bd 007b cf3b 9c37 793d b4c3 913d
000001c0: 66aa 2d3d f8b8 743d 2035 303e db44 133e
000001d0: b839 2d3d 50d4 80bd a26b 28bd fbf4 24bd
000001e0: 1a0f e6bd f9fe 5dbd b01e 33bd cf41 adbd
000001f0: bcb5 05bd 9bec 283c 751f 82bd 9514 bdbc
00000200: 6ee1 403c eae6 5ebd 9edc 1bbd bd53 0f3c
00000210: 3976 0bbe c53f 10be 98ba 93bd ac04 81bd
00000220: b096 bfbd 94cd 943b 5cc9 8cbd 85e8 17be
00000230: 211b 97bd 4ca1 c23d e68a 83bc 3bcf 313a
00000240: 9831 b0bc 24d9 763d 3b43 973d 7751 94bc
00000250: 0e0e cc3c 4195 8f3d f442 1a3d 1d11 c13d
00000260: ed47 a63d c9b4 ea3d 5ff9 a43d 774d 073d
00000270: 7662 283c abee 6cbd e117 64bd 98fc 103c
00000280: 599b 3ebd e947 a1bd 5378 1b3c c740 8a3d
00000290: e212 b03d 94e4 81bd 7667 3fbd c92c 1bbd
000002a0: cd0c 8fbd bf9f 44bd 87b2 86bd 26a5 19bd
000002b0: 78ed 37be 6483 1dbe c66a 7c3d 6458 41bc
000002c0: 5870 57bd 0fe1 683e c61a 743e 7b8d 563e
000002d0: 7557 14bd 7d50 e1bd 03be 1fbe 48f7 233d
000002e0: 6287 a2bc ee4f 7abd 1d5d dd3d 832a d63d
000002f0: 79fc 533d 61c7 06be 3919 0abe 095a 1ebe
00000300: b982 983c 2e2c 373d 4e4c 253b 5487 ec3d
00000310: c655 6c3e f3b8 483e d8c5 81bb d28a 8d3d
00000320: a2a6 80bc 0555 983d a112 a93d 9ab1 a53c
00000330: c5de 333d 296b a83d a785 f63b 776a 9f3d
00000340: 11ca f43a f228 15bd 27ef 223d 86be a23b
00000350: 62d1 883c 23c3 cabb f55a 08bd 15a6 67bc
00000360: 3c54 893c a39e d0bb a0fb 5fbd e34d 393d
00000370: ff15 1c3d c28d 9dbd 3cfc 1d3e e966 f23d
00000380: 881b 593b 6d17 0fbd 71bf 3cbd e9ba 20bd
00000390: bf07 51bb 257d 1cbd db5c e5bd 2055 cb3c
000003a0: 80d8 88bd bf0e e9bd 4563 a9bd 4d37 a5bd
000003b0: 96b8 99bc 0e63 3abe bbb2 cdbd 0df4 c3bc
000003c0: c416 85bd db91 a3bb ab90 803d e80a ab3c
000003d0: 5b73 bb3b 9fdd 7e3d bc0f 0bbc 94bf 03bd
000003e0: 52bd e1bc 1616 cfbc 858e d1bd 4776 adbd
000003f0: 6699 a6bc 80c7 5abd c832 73bc 632e 33bc

module.layer2.0.bn1.weight f4 [32]
0.33181667 0.31720132 0.3229639 0.37834236 0.661581 0.3550272 0.35095423 0.4212813
0.38968873 0.4574322 0.36351016 0.31461093 0.19113642 0.35969925 0.3102718 0.38453516
0.34387824 0.30804464 0.35237786 0.4632161 0.29502502 0.38063493 0.38792345 0.3189943
0.34554255 0.4134359 0.35429472 0.29866764 0.29845485 0.3716962 0.5058785 0.28512505
00000000: e0e3 a93e 3668 a23e 865b a53e 17b6 c13e
00000010: 5f5d 293f 20c6 b53e 46b0 b33e 2fb2 d73e
00000020: 4885 c73e 8e34 ea3e 011e ba3e af14 a13e
00000030: 44b9 433e 802a b83e f2db 9e3e cbe1 c43e
00000040: cf10 b03e 07b8 9d3e df6a b43e a92a ed3e
00000050: 850d 973e 95e2 c23e e79d c63e 3953 a33e
00000060: f4ea b03e dfad d33e 1e66 b53e f7ea 983e
00000070: 13cf 983e f74e be3e 4181 013f e9fb 913e

module.layer2.0.bn1.bias f4 [32]
0.01291398 -0.070502 -0.0805363 -0.1641758 -0.21901822 -0.13688743 -0.1874019 -0.33912963
-0.2008455 -0.24794702 -0.1998743 -0.024230465 0.01989029 -0.033330146 -0.05072693 -0.22362307
-0.04842641 -0.0020055368 -0.105922066 -0.11244075 -0.017449452 0.10329562 0.05717294 -0.12460707
-0.11827177 -0.17885756 -0.113876864 -0.09639596 -0.021265104 -0.086405985 -0.2803975 0.13946885
00000000: 2895 533c 5a63 90bd 37f0 a4bd b31d 28be
00000010: 5046 60be 382c 0cbe 49e6 3fbe 66a2 adbe
00000020: 71aa 4dbe d3e5 7dbe d9ab 4cbe f87e c6bc
00000030: f6f0 a23c 3185 08bd 0bc7 4fbd 72fd 64be
00000040: c55a 46bd 536f 03bb abed d8bd 5647 e6bd
00000050: 27f2 8ebc a78c d33d 2c2e 6a3d fe31 ffbd
00000060: 7838 f2bd 7026 37be 4638 e9bd 3f6b c5bd
00000070: 2834 aebc 9ff5 b0bd 4390 8fbe ecd0 0e3e

module.layer2.0.bn1.running_mean f4 [32]
-0.64173573 -0.13569559 -0.25214598 -1.0183532 -0.3764229 -0.09798065 0.07114376 -0.7375872
0.052160483 0.5923969 0.3008472 -0.6605431 0.7770649 -0.27866524 0.121337466 -0.49870962
-0.011872545 -0.21253574 -0.88876593 0.17709169 -0.5444947 0.15264462 0.048623104 -0.072118506
0.2612295 -0.045646213 0.41031644 -0.3317215 -0.23424567 0.19109496 -0.3108811 -0.12878415
00000000: cb48 24bf c9f3 0abe 4719 81be 6659 82bf
00000010: 81ba c0be 14aa c8bd d2b3 913d 84d2 3cbf
00000020: 3ba6 553d 53a7 173f a508 9a3e 5a19 29bf
00000030: baed 463f 36ad 8ebe c77f f83d de56 ffbe
00000040: 1085 42bc f8a2 59be 2a86 63bf 8657 353e
00000050: 0164 0bbf df4e 1c3e 0529 473d deb2 93bd
00000060: dfbf 853e 86f7 3abd ff14 d23e 67d7 a9be
00000070: 19de 6fbe 66ae 433e cf2b 9fbe fedf 03be

module.layer2.0.bn1.running_var f4 [32]
0.15485813 0.12527487 0.09561137 0.16514352 0.2409628 0.11554848 0.09282753 0.13414544
0.1911485 0.17826208 0.17476812 0.3174414 0.08100513 0.17583612 0.13837017 0.14411224
0.15061972 0.30260202 0.14595105 0.21406327 0.14039361 0.5689126 0.428175 0.08783119
0.18905869 0.26394138 0.11544595 0.08458682 0.13982764 0.15100956 0.15468861 0.18950447
00000000: 2193 1e3e 0e48 003e e5cf c33d 621b 293e
00000010: f4be 763e aea4 ec3d 5c1c be3d 6c5d 093e
00000020: 6fbc 433e 568a 363e 6af6 323e ae87 a23e
00000030: 05e6 a53d 620e 343e e9b0 0d3e 2992 133e
00000040: 0e3c 1a3e a7ee 9a3e 3174 153e 6733 5b3e
00000050: 58c3 0f3e 42a4 113f c139 db3e d7e0 b33d
00000060: 9a98 413e 5323 873e ed6e ec3d db3b ad3d
00000070: fa2e 0f3e 40a2 1a3e b166 1e3e 760d 423e
