pretrained/resnet8_cifar100.pth (torch_old, 918691 bytes, 84 tensors)

module.conv1.weight f4 [64, 3, 3, 3]
000000 2b 9c 8e be e9 c0 8d be a0 d6 a9 be 30 a6 67 bd
       -0.27853522 -0.2768624 -0.33171558 -0.056554973
000010 55 88 db 3d 2c 18 f5 bd aa 45 75 3e ac 8e 0e 3f
       0.10719363 -0.11967501 0.23952356 0.5568645
000020 f4 15 24 3e 5c fc 89 bd 3d 63 f8 3d c4 cd c1 bd
       0.16024 -0.06737587 0.12128303 -0.09463075
000030 bb f3 ba 3d c4 b3 c7 3e cb 27 dd bd 8e 9a 4a bc
       0.09128519 0.39004338 -0.107986055 -0.01236595
000040 4c 70 3a 3e de 8b 58 be 37 eb 97 3e e4 41 9b 3e
       0.182069 -0.21147105 0.29671642 0.30323708
000050 4a 06 a0 3e 06 e5 a3 bc 34 3a d3 bd a6 8f de 3d
       0.31254798 -0.020006668 -0.10313836 0.108672425
000060 9e c7 e0 be 5b 98 09 bf e1 80 1f be db 37 60 3e
       -0.43902296 -0.537481 -0.15576507 0.21896307
000070 f7 16 18 3e 9c 09 2a 3d 23 d7 67 3e f8 ca 69 3d
       0.1485251 0.04151307 0.22640662 0.05707833
000080 0a 00 be bd fd bc c3 3d 10 38 5a be 14 c0 a9 be
       -0.09277351 0.09557531 -0.21310449 -0.33154356
000090 4e 64 22 3e 16 7f 1b 3d ea 7c 8c bc 02 22 20 3e
       0.15858576 0.037962995 -0.017149407 0.15637973
0000a0 dd 33 47 bc d9 d6 9a bd b7 f9 93 3c c0 1b 5e be
       -0.012158361 -0.0756051 0.01806341 -0.21690273
0000b0 24 6a 5a be ce c7 e8 3d 29 f9 c8 3d 8f 08 31 3d
       -0.21329552 0.11366235 0.098131485 0.043221053
0000c0 61 f0 a7 3d 47 b3 65 3d cd 72 97 bb 1a b5 85 bd
       0.082001455 0.056079175 -0.0046218396 -0.06528683
0000d0 10 4b 19 be 80 7c 1c be 17 23 aa 3b 56 81 18 bc
       -0.1497004 -0.15281868 0.0051921713 -0.00930818
0000e0 58 18 11 3b 7a 08 cd 3d b7 c4 1a 3e bd c5 22 ba
       0.0022139754 0.100113824 0.15114103 -0.0006209275
0000f0 9b c4 4f 3d a2 c9 b3 3d 68 c8 8d 3c 0b ee 38 bd
       0.050724607 0.08778693 0.017307475 -0.04514889
000100 3e 8c 22 bd c3 b9 50 3d 87 f2 bf be 42 02 a5 be
       -0.039684527 0.050958406 -0.3748972 -0.32228285
000110 4a 50 89 bd 53 fa b3 be 00 63 a3 be ef f5 42 3b
       -0.06704767 -0.3515192 -0.31911469 0.0029748639
000120 28 07 ab 3d 82 c1 15 3d 81 20 88 bd 44 f0 88 3e
       0.08350974 0.036561497 -0.06646825 0.26745808
000130 b4 d6 93 3e b6 ec 4d bd 8e 87 8c 3e 61 cd 93 3e
       0.28874743 -0.050274573 0.2744717 0.2886763
000140 1e 51 8c bc 89 e2 64 3c 93 92 2c 3d 25 b9 18 3d
       -0.017128523 0.013970026 0.04213197 0.037285943
000150 d5 f1 81 bc f0 57 1f 3c 2c 9d 15 3c d9 2d 01 3d
       -0.015862385 0.009725556 0.009131711 0.031537864
000160 48 bd 1e 3c 86 e0 97 ba 00 0a 31 3c a9 fb f3 3c
       0.009688683 -0.0011587299 0.010805607 0.029783087
000170 47 35 b2 3c 43 80 6b bd 27 72 b3 bc 4f ff 09 bc
       0.02175392 -0.057495367 -0.021905018 -0.008422687
000180 8f 65 88 bc 66 d2 31 bc 22 69 95 bb a2 e9 c2 3c
       -0.01664999 -0.010853386 -0.004559652 0.023793045
000190 31 5a 7e 3d af 42 74 3d b8 7e 22 3c 8a 79 5d 3d
       0.062097732 0.059633907 0.009917907 0.054070987
0001a0 12 8c 51 3d ff 6d 80 3d e3 df ac 3d f6 89 ad 3d
       0.051158972 0.0627098 0.084411405 0.084735796
0001b0 ee f9 f0 3b bf d5 de bc f3 4a ae bd 6d f8 1d 3e
       0.0073540127 -0.027201531 -0.08510389 0.15426798
0001c0 ca bf d7 3d 41 b0 76 bd 5c e5 32 3e a7 60 c6 3d
       0.10534628 -0.060226683 0.17470306 0.09686404
0001d0 b5 35 65 bd cd 8f a5 bd 28 84 05 bd b6 8a e6 3c
       -0.055959422 -0.080840684 -0.032596737 0.028142314
0001e0 4b 72 86 be 56 48 53 be 96 17 b8 bb 57 04 26 be
       -0.26259074 -0.20633063 -0.005618046 -0.16212593
0001f0 6c 05 1f be 2c 25 17 3d 1d 04 41 3d 72 8f 5a 3d
       -0.15529412 0.036900684 0.047123063 0.053359456
000200 97 83 2b 3d fb 9a 92 3d cc 11 ac 3d 49 e1 61 3d
       0.04187354 0.071584664 0.08401832 0.05514649
000210 37 8c 96 3d 3c 50 47 3d 6d 3e 08 3d 48 de e1 bc
       0.073509626 0.0486605 0.03326266 -0.027571812
000220 c9 a6 91 bc 2d 8a 9b 3d b2 b2 0a be a4 87 30 bc
       -0.017779725 0.07594714 -0.1354473 -0.010774527
000230 e4 53 7a 3d a5 5a 77 bd da ca b1 3d ee 0f 98 3d
       0.06111516 -0.06038918 0.08681269 0.07424913
000240 b6 95 00 3e f0 d4 1d 3e dc aa 02 3e d3 91 ef 3c
       0.1255711 0.1541326 0.1276049 0.02924434
000250 c9 60 d7 3d 1a b8 8b 3c ef 78 25 3d 80 18 f7 3d
       0.10516507 0.01705556 0.040398534 0.1206522
000260 10 ba b8 3c 0d 85 14 3e c8 f0 96 bc bc bb 42 bd
       0.022549659 0.1450388 -0.01842536 -0.04754232
000270 1d 4c c2 bd 7f f6 96 be 04 2e 0e be fe 68 00 be
       -0.09487174 -0.29484937 -0.13884741 -0.12540051
000280 48 a9 8c be 5b 22 64 bd d2 27 7c 3e 80 e1 70 3d
       -0.274729 -0.055696826 0.24624565 0.058808804
000290 ab f8 6b bc f1 7e 57 3d 61 a0 60 be 8a 57 85 be
       -0.014402549 0.052611295 -0.2193618 -0.2604335
0002a0 0b c7 f0 3c 36 35 72 be 08 d4 91 be 39 9c 15 bd
       0.029391786 -0.23653111 -0.2848208 -0.03652594
0002b0 10 b8 d5 3c 28 66 89 bd 68 45 8e 3d 2f bf 84 3e
       0.026088744 -0.06708938 0.06946832 0.25927112
0002c0 7c 79 96 3d 04 da b4 3d 85 87 a3 3e 4a e0 16 3e
       0.0734739 0.08830646 0.3193933 0.14733997
0002d0 62 86 81 bd 59 d0 09 3d bb bd 03 3e 4b fe 9b be
       -0.063244596 0.03364596 0.12865345 -0.30467448
0002e0 08 87 bd bd a0 d4 45 3e 65 7d 79 be b0 79 3f bd
       -0.09254271 0.19319391 -0.2436424 -0.04674691
0002f0 e3 bb 3d 3e ee d6 3f 3d 8d 90 a9 3d 76 e7 3d bd
       0.18528704 0.046835832 0.08279524 -0.046363316
000300 6e a2 05 3e 2a a4 1d 3e 8c 1c 04 3d 27 12 08 3e
       0.13050243 0.15394655 0.032253787 0.13288175
000310 fd c5 09 3e db 64 6d bb 56 5a ec bc a9 fc 64 bc
       0.13454433 -0.0036223445 -0.02885167 -0.0139762545
000320 40 d7 99 bd ce 11 30 bd 0e ff 8b bd 5d 75 97 bd
       -0.07511759 -0.04298573 -0.06835757 -0.07395432
000330 86 4a 60 bc 07 e9 6b bd 9d 31 bc bd ba f8 85 3d
       -0.013689643 -0.05759528 -0.091891505 0.065415815
000340 71 5a 53 3d 0f 01 d7 bc 86 2e cc 3d d1 43 3b 3d
       0.051599924 -0.026245622 0.09969811 0.04571897
000350 d6 cd 3a bd a3 cd c3 3d 53 4c 55 3d 76 50 8f bd
       -0.045606457 0.095607065 0.05207474 -0.069977686
000360 63 5c dd 3d 58 e6 03 3e 99 14 24 3c fd da f6 3d
       0.10808637 0.12880838 0.0100146765 0.120534874
000370 c6 a5 40 bd 7c 17 24 be c0 fa 6c 3d 33 60 00 be
       -0.047033094 -0.16024584 0.05785632 -0.12536697
000380 8e b3 5c be 6e 87 99 bd 87 86 7a 3d 60 d5 13 3e
       -0.2155287 -0.07496534 0.06116345 0.14436865
000390 8f f5 a0 3c ce d9 df 3c 8c 4b 9b 3d 81 a1 81 3c
       0.019648341 0.027325537 0.07582769 0.015824081
0003a0 8f 8d 69 3c 78 de 48 3d c6 a2 9b be 9a 09 86 be
       0.014254942 0.049040288 -0.30397624 -0.261792
0003b0 0b a8 85 3c 9f cf f6 bd 85 77 03 be d1 43 fd 3d
       0.01631548 -0.12051319 -0.12838562 0.123664506
0003c0 01 ba ac 3d 27 0b 0c 3e d9 c1 68 3e a5 45 a9 bd
       0.08433915 0.1367613 0.22730197 -0.08265237
0003d0 6d 77 68 bd c9 1e ee 3d 81 8b 64 be 41 5e 8c be
       -0.05675452 0.116269656 -0.22318842 -0.2741566
0003e0 20 88 2d 3d 2b 20 74 be 32 f9 91 be f7 bf 08 bd
       0.042366147 -0.23840396 -0.28510433 -0.033386197
0003f0 b6 c6 b7 3d 1c 9c e3 3d 5e 0e 10 bd 52 53 92 3e
       0.08973448 0.1111376 -0.03516995 0.28579193

module.bn1.weight f4 [64]
000000 c5 c0 82 3e a2 7d 77 3e 64 b0 31 3e df c5 3b 3e
       0.25537696 0.24169019 0.17352444 0.183372
000010 fe c7 19 3e 09 39 26 3e 21 7a 0f 3e 9f 98 03 3e
       0.15017697 0.16232695 0.14011432 0.12851189
000020 a9 9a ac 3e 6e 77 2e 3e f8 da b8 3e 65 5c 51 3e
       0.33711746 0.17037746 0.3610456 0.20445402
000030 22 98 00 3f 62 2d 87 3e fd 2d 8d 3e db ae d4 3e
       0.50232136 0.26401812 0.2757415 0.41539654
000040 17 a4 31 3e b3 e3 a2 3e ad 3d 7e 3e 6b f8 71 3e
       0.17347752 0.31814346 0.24828215 0.2362992
000050 96 23 40 3c 25 9e 5f 3e ff 98 93 3e 94 c0 cc 3d
       0.011727234 0.21837671 0.28827664 0.09997669
000060 2a 24 b1 3e c4 86 d8 3e 97 39 40 3e 5f 0c 3c 3e
       0.34597903 0.42290318 0.18771969 0.18364094
000070 6e b5 02 3f be 32 72 3e 66 f7 4a 3e ff aa aa 3e
       0.5105809 0.23652169 0.19820938 0.33333585
000080 74 f7 2b 3e 2e 9d 55 3e af 75 b8 3e a6 cc 1b 3e
       0.16793615 0.2086074 0.36027285 0.15214786
000090 04 05 4b 3e 22 c5 2f 3f 31 f8 93 3e 8d 99 3c 3f
       0.19826132 0.68660176 0.28900293 0.736718
0000a0 f9 28 5d 3e fa 7e a9 3e c3 de 90 3e f5 49 ca 3e
       0.21597661 0.33104688 0.28294954 0.3950955
0000b0 17 fa 88 3c 2f 82 0f 3f 2f e8 7b 3e 92 e8 6f 3e
       0.016720815 0.5605802 0.2460029 0.23428562
0000c0 84 3a 1d 3e 10 2c 33 3e 2f 6b 08 3e bf 67 55 3d
       0.15354353 0.17497277 0.13322137 0.052100893
0000d0 49 22 c0 3e 97 3f 3a 3e c9 f7 6f 3e 6e 10 13 3f
       0.37526157 0.1818832 0.23434366 0.57446945
0000e0 cc df 97 3e 73 ea f8 36 d8 2e 44 3e 89 a3 c9 3e
       0.2966293 7.4182694e-06 0.19158494 0.3938258
0000f0 bc ca 89 3e a0 44 03 3e 8a 65 fd 3d 18 ce 9f 39
       0.26912487 0.12819147 0.12372883 0.00030480395

module.bn1.bias f4 [64]
000000 92 ab e6 3d 2d cc 87 3d f9 33 ef 3d 47 15 b1 bd
       0.11263193 0.0663074 0.11679835 -0.086466365
000010 df 50 31 ba de c4 84 3d 5a 68 30 3e 06 ec b5 3d
       -0.0006764065 0.06482862 0.17227307 0.088829085
000020 17 2a 55 be 88 75 3f 3e 21 72 4f 3d 7f 5c 3d 3e
       -0.20816837 0.18697178 0.05064595 0.18492316
000030 13 7b 96 be 27 a9 d3 3d 8e 7a d9 3d 57 23 40 be
       -0.29390773 0.103349976 0.106190786 -0.18763481
000040 8e e6 4e be 0c 76 de 3d e8 82 38 be 6f 69 68 3d
       -0.20205137 0.108623594 -0.18018687 0.056741174
000050 fe 62 8c 3b 23 49 0c 3e 5e 4a 50 be 49 d1 4b bd
       0.0042842617 0.13699774 -0.20340869 -0.049760137
000060 0a e6 84 be 23 01 45 be 6b 87 7b 3d a5 d1 bf 3c
       -0.25956756 -0.19238715 0.06140844 0.023415396
000070 50 e1 b5 be 37 e6 03 be e7 c0 82 3d f0 16 ca 3b
       -0.35523462 -0.12880789 0.063844495 0.006167285
000080 86 87 12 3e 23 1f 19 bc d0 50 70 3e 19 e6 49 3e
       0.1430951 -0.0093458025 0.23468328 0.19716682
000090 7e 51 16 be 05 b1 dc be fa 8a 4f 3e fd da 51 bf
       -0.14679524 -0.43103805 0.20267859 -0.81974775
0000a0 7a 57 60 3e 23 89 dc 3d 5c 93 8b 3d 70 4d fd be
       0.2190837 0.10768344 0.06815216 -0.49473143
0000b0 9f 10 81 bc d7 16 20 bf 88 d0 f5 3e 57 6f 66 be
       -0.015754996 -0.6253485 0.4801066 -0.2250341
0000c0 8a cc 0b be 98 a6 ef 3c 6f 0d f8 3c c1 78 96 bc
       -0.13652244 0.029254243 0.030279843 -0.018368127
0000d0 a3 44 81 be 7a 71 65 3e d4 8e 6d 3e 9c 91 da be
       -0.25247678 0.22406569 0.23199016 -0.42689216
0000e0 f6 dd b6 be 1c 09 d8 b7 d2 2b 83 3c 47 1f 9a 3e
       -0.35716218 -2.5753448e-05 0.016012106 0.30101988
0000f0 40 0b fd 3d b6 36 71 3b c5 0c 8f ba bb dc 21 ba
       0.123556614 0.0036806292 -0.001091384 -0.0006174554

module.bn1.running_mean f4 [64]
000000 aa 42 29 bd 7b 48 2b ba 99 32 a8 3c 1a 5a eb bd
       -0.04132334 -0.0006533933 0.02053194 -0.11491795
000010 96 31 b9 3c 42 8f a3 3c 83 ec c0 bc 23 c6 c2 bd
       0.022606652 0.019965772 -0.023550278 -0.09510448
000020 12 bf 2c bb 25 95 04 bd db 2e b6 bc 1d 46 bc bd
       -0.0026359004 -0.032368798 -0.02223914 -0.091930605
000030 92 01 0d 3e d6 ac e9 3c 36 ef 0e bd 85 3b 02 3e
       0.1377013 0.028524797 -0.034896098 0.12718017
000040 b0 57 82 bd be 0d 24 bd 73 9e 7e bd e8 66 48 3e
       -0.06364381 -0.040052168 -0.062162828 0.19570506
000050 27 8a 01 bc 59 ee 14 bc 93 9c 36 3d 3e 93 d4 bc
       -0.007906473 -0.00909003 0.044582915 -0.025949117
000060 9c 90 ad 3d 5a 02 ee 3d 08 cb aa bb d4 4b ab 3c
       0.08474848 0.11621542 -0.0052121915 0.020910181
000070 5e d5 b7 3d 6e 78 8e 3d f3 71 a9 bb e6 fe 55 3e
       0.089762434 0.06956564 -0.0051710545 0.20898017
000080 03 f8 8e bc 19 7a e1 bc 33 1f 15 3d 61 4a 6b bd
       -0.017452246 -0.027524041 0.036406707 -0.05744398
000090 5c 90 e3 bc 79 ef 96 3e 1b 01 dd 3c 7f b8 a1 3e
       -0.027778797 0.29479578 0.026978066 0.31586072
0000a0 16 7a 56 bb a6 af 39 bc cc 17 85 bb 9d 8d f7 bd
       -0.0032726577 -0.011333382 -0.0040616747 -0.120875575
0000b0 f2 c1 e0 39 f2 31 60 be b3 e6 01 bc bc 95 33 bc
       0.0004286911 -0.21894053 -0.007928538 -0.010960992
0000c0 df 55 5e 3b 4e 87 85 bb 10 51 ac bd 49 e4 0e bc
       0.0033925695 -0.0040749675 -0.08413899 -0.00872142
0000d0 25 96 cc 3d 13 e7 b7 bc c1 99 bb bb b2 c9 25 3e
       0.09989575 -0.022449052 -0.005725116 0.16190222
0000e0 75 3b bb bd 6f 53 27 b8 7f 44 e1 b9 df 17 3a bd
       -0.091422 -3.9893606e-05 -0.00042966378 -0.04543292
0000f0 62 8b cc bb f7 8a aa bd 07 fc a6 bd f3 f1 71 3a
       -0.0062422017 -0.08327287 -0.08153539 0.00092294737

module.bn1.running_var f4 [64]
000000 72 0d 79 3e 58 c1 7a 3f 84 02 61 3e 9f c7 83 3e
       0.24321535 0.9795127 0.21973616 0.25738236
000010 2d f8 86 3d 4b 11 6f 3e eb 33 13 3e 35 ff 9e 3e
       0.065903045 0.2334644 0.14375274 0.31054083
000020 6a 75 9a 3d 92 f4 8d 3e d3 45 26 40 d9 42 f1 3e
       0.07541926 0.27725655 2.5980117 0.47121313
000030 c0 1c cc 3e 26 fc 89 3f 5a e6 bb 3e 27 bc fc 3e
       0.39865685 1.0780075 0.36699182 0.493623
000040 77 fe 98 3d 73 24 dc 3f 81 f2 09 3e fc 06 49 3f
       0.0747041 1.7198623 0.13471414 0.7852628
000050 5f 8d cf 3a 71 e1 f8 3e 5a b8 50 3e b8 91 05 3d
       0.0015834979 0.48609498 0.20382825 0.03260967
000060 89 cf 71 3e 0e 35 da 3e bc e5 71 3f 3e 6b 43 3e
       0.23614325 0.42618603 0.9449117 0.19083878
000070 47 4e d3 3e 18 a9 2b 3e b3 2b 6f 3e b1 80 96 3f
       0.41270658 0.16763723 0.23356514 1.1758024
000080 01 e9 46 3e ec 89 8b 3e 29 1d d6 3e 62 40 7d 3e
       0.19424821 0.27253664 0.41819122 0.24731591
000090 0c 5f 87 3d 49 70 d9 3f d3 da b3 3e e5 46 f4 3f
       0.06609926 1.6987392 0.35127887 1.9084135
0000a0 2a 98 7c 3e a7 7e e0 3f b3 4e a6 3f 91 f5 95 3e
       0.24667421 1.7538651 1.2992767 0.29288915
0000b0 59 e8 c9 39 f2 84 90 3f ae d3 94 3d 57 67 15 3e
       0.0003851082 1.1290572 0.07266937 0.14590202
0000c0 fe 49 a1 3c b3 7f 17 3e ea 72 5a 3e fa c7 8f 3b
       0.019688603 0.14794807 0.21332899 0.0043878527
0000d0 de 58 c3 3e 99 2a a2 3f 59 b7 8e 3e fd 4a 1e 3f
       0.38153738 1.266925 0.27874258 0.61833173
0000e0 14 0b 42 3e cc 1c 21 33 bc 33 eb 3e 5b f1 ed 3e
       0.18949538 3.7511924e-08 0.45937908 0.46473202
0000f0 c8 67 fb 3f c2 d0 17 3e 31 bd 33 3e c0 d9 75 37
       1.9641047 0.14825729 0.1755264 1.4653837e-05

module.layer1.0.conv1.weight f4 [16, 64, 3, 3]
000000 23 43 c4 bd 92 6c b4 bc 06 7f 02 bc 28 0c a4 bd
       -0.09583118 -0.022024427 -0.007964855 -0.08010131
000010 ef 62 97 bd a9 a4 26 bd eb 78 a4 3c 1b 86 15 3c
       -0.07391917 -0.040684376 0.02007719 0.0091262115
000020 41 d7 b8 bd 8b f1 9f 3c 69 11 05 bd 6f b3 88 3b
       -0.090254314 0.019524356 -0.032487307 0.004171781
000030 80 e4 d1 3c a3 b0 7a bc 98 49 44 3c 68 b1 20 3d
       0.025621653 -0.015300903 0.011980437 0.039231688
000040 0d 3f 21 3c a8 22 a1 3d 5d 2c 59 3d 28 09 43 bd
       0.009841693 0.07867938 0.053020824 -0.047616154
000050 21 88 d2 bd 10 30 8d 3d 6b 13 43 bc 72 ed 97 bd
       -0.10279871 0.06893933 -0.011906485 -0.07418336
000060 f4 40 c3 3d e2 8d 63 3c e3 c5 50 bd 67 a4 72 3c
       0.09533873 0.013888808 -0.05096997 0.014809704
000070 7e fb e7 3b 40 98 6d bc ac 3a bb 3c 58 a2 b8 3c
       0.0070795408 -0.014501631 0.022855125 0.022538349
000080 e1 3d 97 bc 01 f3 91 3c 2e a0 b6 ba 1f 02 48 bd
       -0.018462123 0.017816069 -0.0013933235 -0.048830148
000090 0f 26 42 3c ea 56 97 bc 54 ee a8 bc 34 96 8d 3c
       0.011849894 -0.018474061 -0.020621456 0.017283536
0000a0 ef 42 dc bc 54 27 cc bc 06 fe 77 3d 9e 1d 15 3c
       -0.026887385 -0.024921097 0.06054499 0.0091013
0000b0 84 12 d0 bc a4 4e 75 3d fd 1c 88 3d 75 a2 d5 3d
       -0.025399454 0.05988945 0.06646154 0.10431377
0000c0 ad 73 32 3c 7e bd 09 3a 97 73 6d 3c e1 56 96 3a
       0.010891837 0.0005254372 0.014492891 0.0011469984
0000d0 1a b2 10 bc 64 21 2b 3c 94 43 c1 bc 17 e2 f2 bc
       -0.008831525 0.010444973 -0.023591794 -0.029648824
0000e0 10 6c ba bc 58 ec 17 3c 4e 60 54 bd db 35 71 bd
       -0.022756606 0.009272657 -0.051849656 -0.05888925
0000f0 68 25 c6 3d ca 3a 8c 3c ad bc 09 bd 2a 20 de 3c
       0.096751034 0.017117877 -0.0336272 0.027114946
000100 8f e9 30 bc 12 15 39 bc 91 51 3a 3d 6d 8e b4 3b
       -0.010797872 -0.011296527 0.045487944 0.0055101425
000110 9e f0 43 3b 82 7c 0c 3d 5d d1 fc bb b7 08 82 3c
       0.0029898058 0.034298427 -0.0077153877 0.015873296
000120 6d 64 cc 3c c1 1e 99 3c f9 4a 0a bd 5f b4 93 bc
       0.02495023 0.018691422 -0.033762906 -0.018030344
000130 2a 10 37 bc 8d 4a dc bc 5f a8 d9 bd ed 0b 52 bd
       -0.011173287 -0.026891017 -0.10627817 -0.051280905
000140 4d a4 de 3c 45 ac 07 bd 0c fa 23 bd 9a 87 00 bd
       0.027177954 -0.033123273 -0.040033385 -0.03137932
000150 f4 d3 b6 3c 79 a7 2c 3d 1d 53 85 3c e7 3e be 3d
       0.022317864 0.042151902 0.016274983 0.092893414
000160 28 94 cf 3d 54 ed 42 3d 5f ab 05 3d 08 d4 83 bd
       0.101356804 0.047589615 0.032634135 -0.06436926
000170 1e c1 dc bd 6a 48 a1 3a 86 bc d7 bd de 0c f2 bd
       -0.10779022 0.0012304906 -0.10534005 -0.118188605
000180 89 e6 0c 3e 82 55 b7 3b ba a3 9a 39 c5 01 4d bd
       0.13759817 0.00559491 0.00029495155 -0.050050516
000190 c0 eb bd bd e0 41 1c be 0f 0d df 3d 52 08 b3 3c
       -0.09273481 -0.15259504 0.108911626 0.021854553
0001a0 59 0c 45 bd c1 7b 2c 3e b0 45 9d 3d ad b5 1d bc
       -0.04810748 0.16844083 0.076793075 -0.009625834
0001b0 5b 6a 92 3c 00 af b2 3d fa 97 ea 3d fa 06 d2 bd
       0.01787298 0.08724785 0.114547685 -0.10255237
0001c0 d1 79 17 bd 85 02 e6 3c e0 f3 05 be 03 4e 50 bd
       -0.036981408 0.028077373 -0.13081312 -0.050855648
0001d0 01 90 7c bb b8 c6 19 3d 3a f7 3d 3d f8 31 9f 3d
       -0.0038537981 0.03754303 0.04637835 0.07773203
0001e0 95 79 91 bd 01 07 df bd e5 1a be bb d9 ea bd bd
       -0.07103268 -0.10890008 -0.005801546 -0.09273309
0001f0 d6 fa 06 be ab ae cd bd 4e 04 53 3c 98 7c 90 3c
       -0.13181624 -0.10043081 0.012879444 0.017637536
000200 97 77 9e bd 0b 62 c2 3c 27 66 7a bb 1c 84 a4 bb
       -0.07737654 0.023728391 -0.003820786 -0.0050206315
000210 bc 47 26 3c d0 bc 69 3c 74 10 6a bc 6f 6b d6 3c
       0.010148939 0.014266208 -0.014286149 0.026174275
000220 6f 14 07 bb 1f 7f 90 3d 86 cd bd 3c 6b 0e 0e bd
       -0.0020611545 0.070554964 0.02316929 -0.03468172
000230 80 81 c5 bc cd 63 f7 bc 8c 26 53 bd e5 67 2f 3d
       -0.024109602 -0.030198956 -0.051550433 0.04282369
000240 1f 92 9f 3c 9c 62 21 3c ce 33 7f bc ef 84 21 3d
       0.019478856 0.00985017 -0.015576316 0.039433416
000250 7c 70 1f 3d 39 07 0e bb 49 db ef 3c 37 51 d6 3c
       0.038925633 -0.0021671786 0.029279368 0.026161773
000260 13 65 0f 3b 9b c5 c3 3c 5c b0 05 3b 01 ad 99 bd
       0.0021880313 0.023897937 0.0020399308 -0.07503701
000270 72 da b4 3d 11 74 7c bc c2 d0 52 bd 7a b1 6a 3d
       0.08830728 -0.015408532 -0.05146862 0.05729816
000280 2a 93 48 bc d8 f4 ec 3c c8 da 34 bd 9f d8 64 bd
       -0.012242118 0.028925344 -0.04415396 -0.05587065
000290 09 d7 6b bd c8 5c 05 bc de ad e4 bc 4b 00 ef bc
       -0.05757812 -0.008139797 -0.027914938 -0.029174944
0002a0 6d f5 51 3d 31 b1 2d bc 79 04 61 bd cf 3f 3d 3c
       0.051259447 -0.010601328 -0.054935906 0.011550858
0002b0 62 f5 82 3d 8f 3f 07 3e 85 3d a8 bd b1 e1 42 bd
       0.06394459 0.1320784 -0.08214859 -0.047578517
0002c0 04 0d fd 3a 24 2c 26 be 8d 14 05 be bd e2 4b bd
       0.0019306247 -0.16227776 -0.12996121 -0.04977678
0002d0 bd 4c 51 39 f8 7c 0e 3b 71 62 74 3b 28 b8 ee b9
       0.0001996038 0.0021741968 0.003729012 -0.00045532105
0002e0 65 1d b3 3a d9 5b f6 3a 36 a4 b6 ba 19 99 0c b9
       0.0013665376 0.0018795683 -0.0013934437 -0.00013408474
0002f0 42 f3 1b 3a 9e 97 a4 bd 95 f9 cc bd 70 c6 42 be
       0.0005949029 -0.08036731 -0.100085415 -0.1902101
000300 d2 2e a1 3d 25 d3 81 3d 3d 5f 86 bd e3 c4 ad 3d
       0.078702584 0.06339101 -0.06561134 0.08484819
000310 02 ac f3 3d 51 9c 51 ba a4 c0 b0 bc ba 09 75 bd
       0.11898042 -0.000799601 -0.021576233 -0.05982373
000320 e5 d5 8a 3c fd 3c cf 3c 33 36 11 bd 3f bd 24 3b
       0.016947696 0.025297636 -0.03545208 0.0025137214
000330 13 4f 42 3d 11 26 1a bc 86 2c 86 3c 0a e4 3e 3b
       0.047438692 -0.00940849 0.016378652 0.002912762
000340 c4 24 2e 3c 9f 83 94 3b 2d 25 12 bc c3 16 39 3a
       0.010628883 0.004532292 -0.008919996 0.00070605817
000350 e2 93 ad 3b 9e 0e d6 bb 25 12 fa bb da c6 53 bc
       0.00529717 -0.006532504 -0.0076315575 -0.012925828
000360 ea c7 55 bc 10 dc 6b bc 4a d7 6b bc a0 f2 c8 3b
       -0.0130481515 -0.014395729 -0.014394591 0.006132439
000370 3a bf a6 3c 72 e6 e7 3c 0e be a8 bb 05 89 48 bc
       0.020354856 0.028308127 -0.0051496094 -0.012239699
000380 43 d4 02 3c e8 32 21 bc 52 33 7f bd a5 b0 49 bb
       0.007985177 -0.009838797 -0.062304802 -0.0030775454
000390 07 4b 02 bb f4 ea 0b bd 7e e8 c9 bc 7a 83 08 ba
       -0.0019881146 -0.034159616 -0.024646994 -0.000520758
0003a0 9f 7f 30 bc 76 d7 70 3c a8 a6 b4 3c aa 10 01 bd
       -0.010772615 0.014699807 0.022052124 -0.031510033
0003b0 f0 70 7d bd 6d ce 48 bb e9 a1 a1 bd a1 5c d0 bd
       -0.061875284 -0.0030640617 -0.0789221 -0.101739176
0003c0 4d 2e 91 3d bf 29 f1 bb 3a 2c 8d bc a9 59 5a 3c
       0.07088909 -0.007359713 -0.017233003 0.013327041
0003d0 d8 df 1a bd a0 0b 96 bd ae 41 8c 3d b4 87 30 3d
       -0.03781113 -0.07326436 0.06848465 0.043098167
0003e0 74 1b b7 3b 68 58 45 3d 06 98 90 3c 61 c1 f2 bc
       0.0055879895 0.048180014 0.017650615 -0.029633226
0003f0 bc 47 55 3d c1 84 93 bd a1 ec 46 be a5 d9 af bd
       0.052070364 -0.07203055 -0.19426204 -0.08586434

module.layer1.0.bn1.weight f4 [16]
000000 aa 54 9c 3e d6 b5 e1 3e 6b da 90 3e 52 73 ef 3e
       0.30533344 0.44084042 0.2829164 0.4676767
000010 07 d8 02 3f 20 f3 06 3f a9 73 ae 3e f7 93 00 3f
       0.5111088 0.5271473 0.34072617 0.50225776
000020 16 3e 9e 3e 26 55 2f 3f 12 5d b4 3e 99 81 de 3e
       0.30906743 0.684893 0.35227257 0.4345825
000030 19 67 d5 3e e8 6b 99 3e 5d 6e f9 3e a0 71 96 3e
       0.4168022 0.29965138 0.48717013 0.29383564

module.layer1.0.bn1.bias f4 [16]
000000 53 10 0a 3e 17 8a 70 3e cd 6b 5e 3e 68 7a e9 3d
       0.1348279 0.23490177 0.2172081 0.114003
000010 77 dd 7d be 90 e3 bc be 61 57 68 3c 64 d4 50 3d
       -0.24791513 -0.36892366 0.014180989 0.0509838
000020 24 49 05 3d bd b7 4c bf 81 99 9a 3d 4f 50 bb 3d
       0.032540455 -0.7996786 0.0754881 0.09146177
000030 82 28 76 3d 19 12 31 3e 8f 35 7e be 66 a4 25 3e
       0.060097225 0.1729206 -0.24825118 0.16175994

module.layer1.0.bn1.running_mean f4 [16]
000000 f8 c2 c1 be 4e 46 52 be f1 c0 ff be ae 7c 83 be
       -0.37844062 -0.20534632 -0.4995189 -0.2568106
000010 81 2e 03 3e 2c ca 51 be 82 2a bd be 9b a9 b0 be
       0.12810709 -0.20487279 -0.36946493 -0.345044
000020 d4 d8 24 bf a5 4d 80 3e 16 04 9f be d1 22 da bd
       -0.64393353 0.25059238 -0.31057805 -0.10651172
000030 7d 7b 60 be 6f fb cb be 54 a0 cc be 8c 13 f8 be
       -0.21922107 -0.39840266 -0.3996607 -0.48452413

module.layer1.0.bn1.running_var f4 [16]
000000 8d 47 21 3e 49 20 83 3e 4f a5 fe 3d e8 45 97 3e
       0.1574995 0.2561057 0.12433874 0.29545522
000010 ad 59 34 3e 62 3f e0 3d 77 94 c6 3d 06 7c a3 3e
       0.17612334 0.10949589 0.09696286 0.3193056
000020 fd ca 2d 3e 26 2a 24 3e 10 9e 1b 3e 60 a5 4d 3e
       0.16971965 0.16031703 0.15197015 0.20082617
000030 8c 7e a7 3e f4 e7 72 3e 43 72 1d 3e 5c 7f c0 3d
       0.32713735 0.23721296 0.15375619 0.09399292

module.layer1.0.conv2.weight f4 [16, 16, 3, 3]
000000 f7 c3 3f 3c 96 d6 e8 3c 93 b9 be 3d 76 56 7e bd
       0.0117044365 0.028422635 0.09312739 -0.062094174
000010 cd c3 02 3c 2e 2b 34 3e 7b 91 47 be 63 1f 18 bd
       0.007981253 0.17594597 -0.1948909 -0.037139308
000020 2d 68 df 3d 59 0c a7 bd 13 a3 a0 bd 72 54 cb bc
       0.10908542 -0.08156652 -0.07843604 -0.02482054
000030 15 99 b4 3c db 73 94 3d c6 65 35 3d 3b e8 b0 3d
       0.022045651 0.0724866 0.04428651 0.086380444
000040 8d b3 77 3d 8f 08 3c 3c 94 d0 fe bb ac 96 df 3d
       0.060473967 0.01147665 -0.0077763293 0.1091741
000050 e0 d5 4b 3e 64 7f d4 bd 5a 60 32 3d f6 2a 0d 3e
       0.19905806 -0.1037586 0.04354892 0.1378592
000060 cd 4b fa bd de e2 22 bd 0b 28 c1 3d 2a 94 91 3b
       -0.12221489 -0.03976714 0.09431466 0.0044427114
000070 0b c7 b7 3c 7c 8a 5d 3d e2 6e b2 bc 15 20 49 3d
       0.022433778 0.054087147 -0.021781389 0.04910286
000080 9f e5 94 3d ae cc 59 3d fe 47 7c 3d ed c0 92 bd
       0.07270359 0.053173713 0.061592095 -0.07165704
000090 b1 44 ad bd bb 2d 4d 3d 89 9a f8 3c 39 12 81 bd
       -0.084603675 0.05009244 0.030347126 -0.06302304
0000a0 18 9d 35 3d 56 74 62 bd e3 4a 8c bd a0 48 11 bd
       0.04433927 -0.055286728 -0.06850221 -0.03546965
0000b0 29 e3 89 bd e8 fb 12 3d 56 4d 3e bc d7 07 da bc
       -0.067327805 0.035884768 -0.011615118 -0.026615066
0000c0 07 69 44 3d f6 1a 7d 3d 98 69 f3 3d 2c 59 17 bd
       0.047951724 0.06179329 0.11885375 -0.036950275
0000d0 e6 a0 a8 bb f9 24 ff 3d db 19 b8 3c 78 27 d3 3b
       -0.0051461337 0.12458224 0.022473266 0.006443914
0000e0 c8 61 c2 bc f1 6b 73 3d ab 5e f0 3b 7c 43 28 bd
       -0.023728266 0.059429113 0.007335504 -0.041079983
0000f0 bd f0 d4 3d 58 69 18 3d dc 67 75 bd 4b bf 43 3d
       0.1039748 0.03720984 -0.0599135 0.047789853
000100 c5 da 85 3d 65 fd 30 bd e0 2f 0a 3d 46 56 23 3e
       0.065358676 -0.043210406 0.033737063 0.1595088
000110 eb 82 e2 3c 2f 40 1e 3d 9b 31 ce 3d 8d bc 91 bc
       0.027650317 0.03863543 0.10068055 -0.017790103
000120 7b fd bd 3c 23 55 8f bc 07 36 1c be e9 fe 07 bd
       0.023192158 -0.017496651 -0.15254985 -0.033202086
000130 ed 96 6f bd e2 0d fb bd 89 67 c2 3d 2d 73 06 3e
       -0.058493543 -0.12258507 0.09492404 0.13129874
000140 5c 9f 0e 3d ec 7b 2c bc 27 04 a7 bc bd 99 60 bd
       0.034819946 -0.010527592 -0.020387722 -0.054834116
000150 35 91 ea bc 6a 43 5f bd 72 23 cd bd 9c 26 bc bd
       -0.028633693 -0.05450765 -0.10016526 -0.09187052
000160 c9 bf 0a be 2f fe 47 be 67 c7 92 bc 18 d6 3b 3d
       -0.13549723 -0.19530557 -0.017917348 0.045858473
000170 f3 f8 00 bd d1 ab bf bc e4 bb ae 3c 9f 2e 16 bd
       -0.031487416 -0.023397358 0.021329828 -0.036665555
000180 4e 21 5f 3d 48 0d 19 bd 78 97 8f bd 82 d8 e4 bc
       0.05447512 -0.03736618 -0.07011312 -0.02793527
000190 a6 7b 85 3d ac 0d 00 3d 77 0b 1d bc 36 04 bb 3d
       0.06517725 0.03126304 -0.009585253 0.091316625
0001a0 38 9c 7b 3d c9 16 b8 bd e1 ab 01 3d b2 9c 5e 3d
       0.06142828 -0.08988721 0.031658057 0.054348655
0001b0 e1 6f 78 bd 5a f9 31 3c a4 a0 15 3d 79 e1 29 bc
       -0.06065357 0.010862673 0.036530152 -0.010368698
0001c0 ed a5 42 3c 2a a7 45 bb 01 c6 10 3d a5 44 5b bd
       0.01188038 -0.0030159452 0.03534508 -0.05353226
0001d0 c1 12 36 bd a7 55 3a be 59 7b 06 be 75 92 bf bd
       -0.04445148 -0.18196736 -0.13132991 -0.09354106
0001e0 17 86 24 3d 70 27 0d 3d 94 a8 0c 3d 6f 05 2c 3c
       0.04016694 0.03446144 0.034340456 0.010499342
0001f0 41 9e a5 3d 38 ff 6e 3d 15 88 b2 bc d5 bf 4a bd
       0.08086825 0.058348864 -0.021793405 -0.04949935
000200 39 f6 29 bd 12 97 06 3e dc 70 91 3d 93 13 d9 3d
       -0.04149458 0.13143566 0.07101604 0.105994366
000210 fa c8 95 3d aa 1f 0a 3d 96 d1 85 3d fc ba b4 bd
       0.07313724 0.033721603 0.06534116 -0.08824727
000220 48 18 49 bd b9 3f 12 be 2e 2f 31 bd d5 fd 93 bd
       -0.049095422 -0.14282121 -0.043257885 -0.07226149
000230 64 84 2a be fd 27 4c 3e 5d af c3 3d 21 d1 7d bc
       -0.16652066 0.1993713 0.09554932 -0.015491755
000240 ef f8 f2 bd 66 88 55 3b d3 2b e6 3d a7 da 92 bd
       -0.118638866 0.003258252 0.112388276 -0.07170611
000250 df a4 89 bd d3 7c 56 3d d3 a3 a0 ba 55 d6 fa bd
       -0.067209 0.052365135 -0.0012255855 -0.12247912
000260 26 8d 3b be 0f 9d 8a bc 2d b7 01 3e 2f 2c ac 3d
       -0.18315563 -0.016920594 0.12667532 0.08406865
000270 a1 4d f3 bd 38 c3 26 3d fb 8f 68 3b 02 5e 20 be
       -0.11880041 0.04071352 0.003548621 -0.15660861
000280 1d b5 77 bd 16 0d c4 3d 48 27 11 be 36 78 36 bc
       -0.060475457 0.095728084 -0.14175141 -0.011137059
000290 28 a6 0a 3d a7 44 d0 bc 81 20 b1 bc a7 31 e0 bc
       0.033849865 -0.025423361 -0.021621944 -0.027367426
0002a0 10 c6 6f 3d 4e dd 32 3d 86 fe d3 bc d6 82 9b bd
       0.058538496 0.043668084 -0.025878202 -0.07593314
0002b0 09 dd 93 bd fe dc 91 3d f8 69 71 3b fb 9a 05 be
       -0.072198935 0.07122229 0.0036836844 -0.13047402
0002c0 f3 49 f1 bc a3 fb 86 3d d1 7e d4 bd 3a 25 ae bd
       -0.029454207 0.06590965 -0.10375751 -0.08503194
0002d0 d1 3f 06 be 53 b6 42 bd 1e 08 5d 3c 3d e0 b3 bd
       -0.13110282 -0.04753716 0.013490705 -0.087830044
0002e0 60 5a e9 bc 49 4f ba 3d 6c 5e b8 3c bc 43 47 3c
       -0.028485477 0.09097154 0.022505961 0.012162145
0002f0 10 cc af 3c ba 9d 8e bd ab 23 44 be 60 b9 45 bd
       0.02145961 -0.06963678 -0.19154231 -0.04827249
000300 ac df 08 bd 77 35 d0 bd d2 3c 98 bc be ac 94 ba
       -0.033416435 -0.101664476 -0.018583689 -0.0011342985
000310 1a d3 e8 bd 2f 4d 10 bd aa 11 c1 bc e0 78 12 3d
       -0.113683894 -0.035229858 -0.023567993 0.035759807
000320 7c 62 75 bc d0 6b 92 bd de 93 84 3d d5 39 2b 3e
       -0.014977094 -0.0714947 0.06473516 0.1672128
000330 b8 ad 2b be 7c b0 ba bc 9e d6 02 3e c9 cc 4a 3d
       -0.16765487 -0.022789232 0.12777182 0.049511705
000340 96 f3 5d bd 98 4a e7 bd b9 51 a8 3d d9 40 37 3c
       -0.05418738 -0.112935245 0.08218712 0.0111848945
000350 e2 7a aa 3c af d3 d5 bd 9e 5c c7 bc b0 96 68 3d
       0.020810548 -0.10440766 -0.024336156 0.05678433
000360 29 31 7b 3c 4b 60 fb bd 48 8c 00 be a7 54 62 3e
       0.015331545 -0.12274226 -0.12553513 0.22102605
000370 78 f9 00 3e 28 0c a3 3b 32 9e 72 3d cb bc 89 3d
       0.12595165 0.0049758144 0.059232898 0.067254625
000380 b9 39 f1 bc fb ee de 3d 4d ae d8 3d 1b 69 65 3d
       -0.02944647 0.10885426 0.1058012 0.05600844
000390 87 1d 89 bd 3b 31 52 bd 93 b9 f0 bd 0b 95 91 bd
       -0.06695085 -0.05131648 -0.117541455 -0.07108506
0003a0 42 42 b9 bd 78 02 33 be d0 03 ac bd b3 96 b6 3d
       -0.09045841 -0.1748141 -0.08399165 0.08915462
0003b0 be 95 a8 3d 3b a6 5b bd ba 3c b4 3d 2f 95 3d 3c
       0.08231686 -0.053625327 0.08800645 0.011571213
0003c0 65 ff 60 be d8 40 6f bb ec d1 b7 bd 84 e3 33 bd
       -0.21972425 -0.0036507156 -0.08975586 -0.043918148
0003d0 83 38 92 bd e1 1b b3 bd dc 1d b6 bc f9 db 72 3d
       -0.07139685 -0.08745552 -0.022231035 0.059291814
0003e0 e9 19 64 3c 7f 2a 63 3c 74 24 62 3e f8 d1 df 3d
       0.013922193 0.013865112 0.22084218 0.1092872
0003f0 61 27 3d 3d 00 f2 c4 3c 21 d7 3f bd ab ec aa 3d
       0.046180133 0.024041176 -0.046836022 0.08345922

module.layer1.0.bn2.weight f4 [16]
000000 31 01 bf 3e 3c 2a a3 3e 47 93 06 3f e2 84 fd 3e
       0.37305596 0.3186816 0.5256848 0.49515444
000010 2c 51 d0 3e db 33 e8 3e 7e 34 c5 3e 0b eb 51 3f
       0.4068693 0.45352063 0.3851661 0.8199927
000020 08 a5 a0 3e d8 00 4b 3f 73 ea ab 3e 28 94 07 3f
       0.3137591 0.7929816 0.33577308 0.52960443
000030 73 70 5b 3f ba 16 0d 3f 1d 19 76 3e 95 c4 b6 3e
       0.8571846 0.55112803 0.24033017 0.35696855

module.layer1.0.bn2.bias f4 [16]
000000 40 23 5f bd 5a 0e 4d 3e e7 39 3b be 51 0c 76 3e
       -0.054476976 0.20025006 -0.18283807 0.24028136
000010 32 9d 91 bd e0 0b 45 3e 0e 3b 85 3e 9d 19 c2 3d
       -0.07110061 0.19242811 0.26021618 0.094775416
000020 e7 e3 f0 3d c8 8b 3d 3e 28 93 2f 3e 18 93 ac 3d
       0.11762219 0.18510354 0.1714598 0.084264934
000030 2b 8a 42 3e 3e 28 05 be 85 ce 50 3e fc ca da 3d
       0.1899802 -0.13003632 0.20391281 0.106832474

module.layer1.0.bn2.running_mean f4 [16]
000000 59 c6 1f 3e 41 4e ae be f6 5a 47 3c 8e 4b d4 be
       0.15603007 -0.34044078 0.012167683 -0.41463894
000010 a0 8b 22 3e b6 34 f8 be 57 6b 84 bd a6 c4 45 be
       0.15873575 -0.48477715 -0.06465786 -0.19313297
000020 41 a9 92 be 60 52 15 bf 5b 64 b1 be 68 eb 4f be
       -0.28644755 -0.5832882 -0.34646878 -0.20304644
000030 f0 d0 a5 be c5 fc 83 be 75 1f 97 3e f0 73 56 be
       -0.3238597 -0.25778785 0.29516187 -0.20942664

module.layer1.0.bn2.running_var f4 [16]
000000 08 27 8f 3d aa 96 df 3d 78 47 60 3d 04 f7 4d 3e
       0.069898665 0.10917409 0.054755658 0.2011376
000010 fa ef ba 3d 6b c0 44 3e b3 9a 0b 3e 74 5a ac 3e
       0.09127803 0.19214027 0.13633232 0.3366276
000020 88 f9 ce 3d a0 34 45 3e 08 6a dc 3d 2f a4 5a 3e
       0.10106188 0.19258356 0.10762411 0.21351694
000030 eb 0d 76 3e 09 68 b2 3d e3 94 e7 3d 52 0c b6 3d
       0.24028747 0.087112494 0.11307695 0.08889069

module.layer1.0.shortcut.0.weight f4 [16, 64, 1, 1]
000000 b2 fe 4c bd 71 ad 03 3e 6a 7f aa 3d 97 7d 57 3c
       -0.050047584 0.12859131 0.083250836 0.013152502
000010 81 19 e6 3c 71 f2 68 be 99 64 b9 3c dd 4c a4 bc
       0.028088333 -0.22748734 0.022630977 -0.020056183
000020 9b 64 d7 3d 18 ba f7 bd e2 2a 9f 3e d9 8f ba bc
       0.10517236 -0.120960414 0.31087404 -0.02277367
000030 a0 bc 54 3d 06 9b 5f 3d dd 8e 24 3e 65 06 0e 3d
       0.0519377 0.0545912 0.16070123 0.034674067
000040 0b e3 38 3d 75 cf ff 3d db 1e f2 3c 43 12 06 3e
       0.0451384 0.12490741 0.029555729 0.13092904
000050 9c 09 ad bb 17 61 9b 3d c6 3a 02 bc ee 5b a3 3b
       -0.0052806865 0.07586878 -0.007948583 0.004985324
000060 79 44 85 3d f9 af 08 3d 60 fd 2c 3e 53 34 1c 3e
       0.06507201 0.033370946 0.1689353 0.15254335
000070 a5 f8 1f 3d 98 f7 43 3c 94 74 01 be bf cf d4 bd
       0.039055485 0.011960886 -0.12642127 -0.10391187
000080 40 88 b3 3d 19 1a 17 bc d7 e2 92 3d b7 5d 0b 3e
       0.08766222 -0.009222531 0.071721725 0.13609968
000090 74 3d 65 3c 1a 89 39 be c6 58 e4 bc ae b6 42 bc
       0.013991702 -0.18118706 -0.027874362 -0.011884375
0000a0 46 a3 94 3d cc 57 0f 3e 9e 4d ce 3d 50 ee 8f 3d
       0.072577044 0.13998336 0.10073398 0.070278764
0000b0 63 41 89 bb 0d b7 d3 bd c8 ed 27 3d fd 34 fc bd
       -0.004188703 -0.103376485 0.04099825 -0.12314794
0000c0 98 48 7a 3c bb 1f 24 be 39 37 55 bd 13 04 63 bc
       0.015276097 -0.16027729 -0.052054618 -0.013855952
0000d0 f8 76 ff 3d e5 47 02 3e a5 4f 1c 3d c6 10 ef 3d
       0.12473863 0.12722738 0.038161892 0.11673121
0000e0 15 4e f1 3d b9 7d 75 37 16 8a 38 3d 62 c2 a3 bc
       0.11782471 1.463241e-05 0.045053564 -0.01999015
0000f0 2b fc 65 3d 1f 06 1e 3d 00 14 13 bd 25 3d f5 38
       0.05614869 0.038580056 -0.035907745 0.000116938994
000100 b6 a3 be 3c 8a f1 bc 3d fb cb 32 3d 29 68 87 bd
       0.023271423 0.092257574 0.043651562 -0.06611664
000110 50 99 d1 3d b7 17 16 3e bd 5a b4 3d 28 33 d0 bc
       0.1023432 0.14657484 0.088063695 -0.025415018
000120 b3 7b 8e bc c8 2e 4b 3d d8 e5 80 3e a7 86 57 3d
       -0.017392969 0.04960516 0.25175357 0.05261865
000130 43 ad 0a 3e 30 b9 c9 3c 71 6f 86 3c 4e cd 68 3e
       0.13542657 0.024624437 0.016410561 0.22734568
000140 21 4a 6a 3d b4 22 54 be 35 42 fc 3c e6 78 5f 3d
       0.0571996 -0.20716363 0.030793289 0.054558657
000150 49 8c b9 3b d2 45 c9 3d c3 01 c2 3b da 1a 1b 3d
       0.0056624752 0.0982777 0.00592062 0.037867405
000160 0e 99 ca 3d 61 26 7b 3e 40 57 16 3e 30 63 68 3d
       0.09892474 0.24526359 0.1468172 0.056735218
000170 a0 36 c1 3c b1 42 6c 3d e2 4a e8 3d d7 ab c6 3e
       0.023585618 0.05768079 0.11342408 0.38802978
000180 b2 27 dc 3c 57 ce bd 3d c7 cd 4b bd 1a 41 db bd
       0.026874397 0.09267872 -0.04975679 -0.107057765
000190 27 8a 37 3d 84 86 0e 3e 53 df ae bb af 3c 20 3d
       0.044809487 0.13918501 -0.005336681 0.039120372
0001a0 9f ee 86 3d 05 12 9e be bb c2 60 bc 7a c3 94 3d
       0.06588482 -0.30873123 -0.013718302 0.07263847
0001b0 81 3c f7 ba ea a8 37 3e bb e4 78 3b bf ba 68 3c
       -0.0018862636 0.1793553 0.003797813 0.01420468
0001c0 cf 0f d6 3c 02 f3 aa 3d 0b f2 cc 3c 65 7a 24 3c
       0.026130585 0.08347131 0.025017759 0.010038947
0001d0 d0 2e 12 bd 11 f8 16 3e 53 2b 3c bd 56 4a 40 3d
       -0.035689175 0.14743067 -0.045939755 0.046945892
0001e0 43 05 9b 3d 1d 90 a1 37 10 aa 59 bc 70 00 e1 bc
       0.07569363 1.9259804e-05 -0.013285175 -0.027466029
0001f0 98 56 61 bd 20 3a 80 bd a5 d1 0d bb ac 06 04 39
       -0.055014223 -0.062610865 -0.002163985 0.00012590986
000200 28 b1 3a 3c 28 e0 06 bd e5 2e 6e 3d ac 2a 48 3d
       0.011394776 -0.032928616 0.05815019 0.04886882
000210 3c 6d 50 3d 6b 2b 88 bd 5d b5 4c bc 1d 3f 73 3c
       0.050885424 -0.06648906 -0.012494412 0.01484659
000220 d0 47 95 bd 99 99 d3 ba d7 87 98 bd 0b b2 65 bc
       -0.07289088 -0.0016143798 -0.074477844 -0.0140194995
000230 8e 32 cd 3d ae 70 b5 bd 74 ad 2c 3d e1 c3 c5 3d
       0.10019408 -0.088593826 0.042157605 0.096565016
000240 86 62 cc 3c 98 8c 4d bd d2 b4 a1 3a 66 1e eb 3d
       0.024949323 -0.05018291 0.0012337214 0.114804074
000250 74 d1 a3 3a c3 26 ec bc 63 d9 f9 bc 91 46 54 3c
       0.0012498335 -0.028827077 -0.030499166 0.0129562775
000260 2f 9a 8a 3d c7 66 23 3e 63 2c 2b bd 26 a1 65 3d
       0.067676894 0.15957175 -0.041790377 0.056061886
000270 17 d1 a6 3d bd 09 a8 3c ca f2 65 3c 08 76 8c bd
       0.081453495 0.020512456 0.014034936 -0.0685845
000280 7c 5f 21 3d 8d f5 6e bc fb 15 93 bc 88 c8 ba 3c
       0.0393977 -0.014584911 -0.017954817 0.022800699
000290 74 df 7a bc f8 1c b8 3d d9 b9 44 39 03 0f 6e 3e
       -0.015312064 0.089899 0.0001876125 0.23247914
0002a0 c1 51 43 bc 24 95 c3 bd dc e2 00 be ea 52 13 3d
       -0.011921347 -0.09549931 -0.1258654 0.035967745
0002b0 c3 57 10 bb 43 3e 12 bd b9 db 4d ba 77 3e a6 bc
       -0.0022024966 -0.03570391 -0.00078528706 -0.020293457
0002c0 53 7b f1 3b d8 d5 9c 3b fe 5b ff bc 20 81 0c 3a
       0.0073694377 0.0047862343 -0.031171795 0.00053598173
0002d0 f0 4e c1 3c 6f 54 ab bd 56 32 aa bd b4 ab 33 3e
       0.02359721 -0.08365714 -0.08310382 0.17545968
0002e0 fa e7 d5 3c f1 f7 d6 36 55 72 0e bd 8e 5f 96 bc
       0.026111592 6.406561e-06 -0.034777004 -0.01835611
0002f0 6e 21 c0 bc 63 0a 6f 3c 48 13 da ba b0 bb 4c 39
       -0.02345344 0.014589879 -0.0016637826 0.00019524875
000300 1d 55 70 bc cd 05 76 be 85 ae 79 bd 4f fb ac 3c
       -0.01466873 -0.2402565 -0.06095745 0.021115927
000310 83 98 96 bd ae 74 b5 3d d4 d6 de 3c 97 37 dd bb
       -0.07353308 0.088601455 0.027202047 -0.0067510116
000320 6d 8e 89 bd a4 d9 ed bb 1f e3 0d be 2c 85 ed 3d
       -0.06716619 -0.007258611 -0.13856171 0.11597666
000330 fc c0 48 bd 23 fc 30 3e 57 28 d2 bd a7 4b 70 bd
       -0.04901217 0.17283683 -0.102616005 -0.058665898
000340 94 a6 06 bd 59 8c a6 be c9 4a 0d bd 16 f2 72 be
       -0.032873705 -0.32528952 -0.03449515 -0.23725161
000350 a9 b8 22 3c b0 bd df bd 90 17 cb 3d 3e 70 d1 bc
       0.009931722 -0.10924852 0.099166036 -0.025566217
000360 59 41 ae bd 78 d2 63 b9 88 27 79 bd da 47 ee bc
       -0.08508558 -0.00021726813 -0.060828716 -0.029086996
000370 b4 d8 20 be e8 fb 50 3d dd 59 11 bc dc 4d bc 3d
       -0.15707666 0.051021487 -0.008871523 0.09194538
000380 85 2f 83 3d 96 4a 8a 3d a8 22 d2 3b 54 46 5e 3c
       0.06405548 0.067525074 0.0064128228 0.013566572
000390 02 ba d5 bc ef 6e 7b bd 6f 2f a4 3d fe 59 12 be
       -0.026089672 -0.06138509 0.0801686 -0.14292142
0003a0 99 69 51 3d d6 68 d9 3c 56 32 41 3e 33 12 fd ba
       0.051126096 0.026539247 0.18866858 -0.0019307792
0003b0 41 60 6c 3b b8 93 7e bd 55 bb 1d 3c 85 3e c2 3d
       0.0036068114 -0.062152594 0.009627183 0.09484581
0003c0 fd 32 45 bd b8 87 cd bd 10 6c aa 3c 3d a0 e7 bb
       -0.04814433 -0.10035652 0.020803481 -0.0070686624
0003d0 51 6e a6 3b 63 74 21 3d 59 18 be bd af 83 cf bd
       0.0050790687 0.039417636 -0.09281988 -0.101325385
0003e0 30 13 96 bd 47 4d f6 b7 31 61 3c 3d ea db 8f 3d
       -0.073278785 -2.936147e-05 0.045991126 0.07024367
0003f0 17 73 0a bf c5 15 64 3d 8a 8a 9a 3c ba 85 bf 38
       -0.54081863 0.055684824 0.018864889 9.132498e-05

module.layer1.0.shortcut.1.weight f4 [16]
000000 87 83 c9 3e a0 25 b2 3e 00 e6 c1 3e ce e5 9e 3e
       0.3935816 0.3479433 0.3787079 0.31034702
000010 b3 3d a5 3e 02 6e b2 3e b5 41 4f 3e 9b ff 79 3e
       0.32273635 0.34849554 0.20239909 0.24413912
000020 d0 68 b4 3e 76 53 50 3e 56 ca 91 3e 35 23 07 3f
       0.35236216 0.20344338 0.28474683 0.52788097
000030 89 93 57 3e 55 d4 74 3e 7b 6b 97 3e 15 e4 b8 3e
       0.21052374 0.23909123 0.2957419 0.36111513

module.layer1.0.shortcut.1.bias f4 [16]
000000 40 23 5f bd 5a 0e 4d 3e e7 39 3b be 51 0c 76 3e
       -0.054476976 0.20025006 -0.18283807 0.24028136
000010 32 9d 91 bd e0 0b 45 3e 0e 3b 85 3e 9d 19 c2 3d
       -0.07110061 0.19242811 0.26021618 0.094775416
000020 e7 e3 f0 3d c8 8b 3d 3e 28 93 2f 3e 18 93 ac 3d
       0.11762219 0.18510354 0.1714598 0.084264934
000030 2b 8a 42 3e 3e 28 05 be 85 ce 50 3e fc ca da 3d
       0.1899802 -0.13003632 0.20391281 0.106832474

module.layer1.0.shortcut.1.running_mean f4 [16]
000000 2b 85 8f 3e 1e d5 60 3e e2 5a 1b bd ea 09 23 be
       0.28031287 0.21956298 -0.03792847 -0.1592175
000010 94 f7 88 be b5 ba c0 be 91 ee e1 bc a6 2f bc bc
       -0.26751387 -0.37642446 -0.027579578 -0.02297194
000020 ab bb ae be 4a 0f 01 bd e1 d3 e3 be 7e 59 70 be
       -0.34127554 -0.03150872 -0.44497588 -0.23471639
000030 20 f9 1a bd ac 8d 85 be fa 22 ad 3e 98 95 54 be
       -0.03783524 -0.2608465 0.33815747 -0.2076019

module.layer1.0.shortcut.1.running_var f4 [16]
000000 8a c3 0d 3d e1 82 af 3d d1 41 90 3c 73 f1 75 3d
       0.03461031 0.08569885 0.017609509 0.060044717
000010 aa dd 1c 3d c0 34 b9 3d 9c 4a 1e 3d f8 d7 17 3d
       0.038297333 0.090432644 0.03864537 0.0370712
000020 4c a0 91 3d 18 a4 80 3c ca 02 34 3d aa 6c 08 3e
       0.07110652 0.015703246 0.043947972 0.13322702
000030 67 8f a5 3c d8 f5 a8 3c db 67 94 3d b9 c0 5a 3d
       0.020209981 0.02062504 0.07246371 0.05340645

module.layer2.0.conv1.weight f4 [32, 16, 3, 3]
000000 9d f8 f2 bc a4 92 e0 bc e6 19 d8 3c 55 3f 9a bd
       -0.029659564 -0.027413674 0.026379537 -0.07531611
000010 6a 78 6b bd 9f b4 12 3d ad 31 c4 bc 8e 9a 17 bd
       -0.057487883 0.035816785 -0.023949469 -0.03701263
000020 20 89 23 bd 43 83 44 bd f5 39 60 bd 4a 15 ed 3b
       -0.039925694 -0.047976743 -0.054742772 0.007235204
000030 8e ef 6d ba b3 c7 e4 bd 09 97 b0 bc e8 fe 14 3d
       -0.0009076529 -0.11170902 -0.021556394 0.03637591
000040 d0 b8 81 bb 04 9b 80 3d d2 be d6 bd 57 e1 86 bd
       -0.003958799 0.06279567 -0.10485615 -0.06585949
000050 95 b2 dd bc 0d b2 32 be f1 2a e9 bd 4f b8 98 bd
       -0.027062694 -0.17450733 -0.113851435 -0.07457029
000060 d9 a3 ee bd 8a 1b 0d bd 9d 5c ce 3c d8 bd 89 3c
       -0.11652345 -0.03445009 0.025190646 0.016814157
000070 d3 6e 9e 3d 85 2b 71 3e 2c 0c 7e 3e 27 e8 78 3e
       0.07735982 0.23551758 0.2480933 0.24307309
000080 40 cd b4 3e db 00 3d 3e 60 1e 8a 3e 26 b3 80 3e
       0.35312843 0.18457358 0.269763 0.2513668
000090 80 bc a6 bd 3a d8 66 bd ca 4b 98 bb e1 46 2d be
       -0.08141422 -0.056358553 -0.0046477066 -0.1692157
0000a0 03 95 c6 bd c8 c3 e8 3c c4 51 e4 bd 7d 43 f4 bd
       -0.096963905 0.028413668 -0.11148408 -0.11926935
0000b0 11 dc 0a 3d a8 3a 8a bd ab c2 09 be e6 dc 2d be
       0.033901278 -0.06749469 -0.13453166 -0.16978797
0000c0 67 12 95 bd ac cc 08 be e6 71 5b be 1f f6 ad bd
       -0.072789006 -0.13359326 -0.21430168 -0.084942095
0000d0 b0 f7 92 bd 04 5c 28 be 5d 88 e1 bc b3 fa 28 bc
       -0.07176149 -0.16441351 -0.027530843 -0.010313678
0000e0 34 68 c4 bc 6c 83 b9 bd 3e 61 97 bd a5 ee 8e bd
       -0.02397547 -0.0905827 -0.07391594 -0.069791116
0000f0 3d b5 52 bd 39 23 a9 bd 50 73 73 bd a0 bc a5 3d
       -0.051442374 -0.08258671 -0.059436142 0.08092618
000100 87 25 ee 3d d0 48 e0 3d 06 23 1d 3e 90 05 59 3e
       0.116282515 0.10951388 0.15345392 0.21193528
000110 4b db ac 3d 01 bc 25 3e d0 48 24 3e 07 79 1b 3d
       0.08440264 0.16184999 0.16043401 0.037957218
000120 8d 7e 2f 3c 83 5e 60 bd 40 11 42 be a4 19 14 3d
       0.010711324 -0.054777633 -0.18951893 0.036157265
000130 7a b0 df ba 31 0c f5 bd f3 66 a4 3d 2b bc 36 3d
       -0.0017066144 -0.11965216 0.080274485 0.044613045
000140 af 5e ed bc 55 32 37 bd 1c 1f 1d bd 5e 84 73 3c
       -0.028975813 -0.044725735 -0.038359746 0.014863102
000150 2c 9e 0b be 35 61 9f bd 92 ea be 3d 29 3e bd bd
       -0.13634557 -0.07782213 0.093220845 -0.09240372
000160 8d 05 a2 bc c3 80 96 3b cb 8f 5b 3d a3 36 a3 bc
       -0.019778037 0.0045929863 0.05360393 -0.019923514
000170 7d 25 95 3c 84 3b 99 3d 96 1d b5 bc 74 93 cb bd
       0.018206352 0.07482055 -0.022108834 -0.09940234
000180 07 c6 04 3e f2 b7 a4 3d 0d 42 b1 bb 13 b1 85 3b
       0.12966166 0.08042897 -0.005409485 0.004079947
000190 13 a0 50 bc 2b d4 97 bd 2f 79 93 bd 07 8e d4 3b
       -0.012733477 -0.07413515 -0.07200848 0.0064866575
0001a0 d7 8b a3 3c d2 33 68 bd bd 72 79 bd 06 47 1f 3d
       0.019964142 -0.056690045 -0.06090044 0.038886093
0001b0 68 9a b7 bc d4 b4 10 bd 4a 37 81 bd 70 96 29 bd
       -0.022412494 -0.0353287 -0.06309374 -0.041403234
0001c0 94 c1 84 bd 0c d7 c5 bd 73 f0 17 3c 61 bb 13 bd
       -0.064822346 -0.096601576 0.009273636 -0.03606737
0001d0 48 7c 6a bd 53 f9 63 bc f0 46 7d 3d 76 2e 38 3d
       -0.05724743 -0.013914424 0.06183523 0.044966184
0001e0 c3 40 55 bd 1d 20 c3 3d d8 d5 7f 3d b6 81 a7 bd
       -0.052063715 0.095276095 0.062459797 -0.08179037
0001f0 5c c7 d4 3d b5 9e 9a 3a 5f 65 9b bd 2e 5c 49 bd
       0.10389587 0.0011796566 -0.075876944 -0.049160175
000200 80 04 06 3d 07 20 17 be cb 70 86 bd 2a 6e 9d 3d
       0.032719135 -0.14758311 -0.06564482 0.07687028
000210 5c 60 19 be e3 a7 c8 bd 97 ac 99 3d 33 75 bd bd
       -0.14978164 -0.09797647 0.07503622 -0.092508696
000220 ce 87 82 bd c0 c7 ac 3d 89 06 a9 bd a0 97 f7 bd
       -0.06373559 0.08436537 -0.082531996 -0.12089467
000230 c3 bb cb 3d 69 ea 9d 3c b0 a9 a2 bd d8 ab 0e 3d
       0.09947922 0.019276815 -0.079425216 0.03483185
000240 5f 74 19 be 58 0a 1d be f4 62 d7 bd 1c 72 85 3d
       -0.14985798 -0.15335977 -0.10516921 0.06515905
000250 ed 49 fc 3c da ea d4 3c ce 1a 26 3e a4 17 05 3e
       0.03079697 0.025990892 0.16221163 0.129973
000260 9f a6 97 3d ce 55 d9 bd 1e e5 c1 bd a6 ab 03 be
       0.07404827 -0.10612069 -0.09467529 -0.12858447
000270 4d 9e 9e bb d7 1f 07 3b 49 91 45 bc 68 b4 3a 3e
       -0.0048406483 0.0020618343 -0.012058564 0.18232882
000280 08 43 22 3e 43 11 a4 3d ff 3c a9 bd a0 98 cc bd
       0.15845883 0.08011105 -0.08263587 -0.099900484
000290 e5 9c 88 bd 9c 5e af 3c f6 5f 91 3c a3 6b 66 3d
       -0.0667055 0.021407418 0.017745953 0.056254994
0002a0 18 da 36 bd e9 62 69 bd c5 3d d8 bb 64 79 c7 3c
       -0.044641584 -0.056979094 -0.0065991604 0.024349876
0002b0 ff c9 b3 3d 2f 46 7d 3d 54 22 a8 bb 6e cf c5 bb
       0.08778762 0.06183451 -0.0051310454 -0.0060366904
0002c0 72 7a b2 bc ba ae a1 bd e9 cb 83 bd f5 e5 9d 3b
       -0.021786902 -0.078946546 -0.06435377 0.004818673
0002d0 9a 86 82 bd c7 19 87 bc cc fa 3c bd 95 ab a9 3d
       -0.063733295 -0.016491784 -0.046137616 0.0828468
0002e0 d4 c9 10 3d 07 e0 ae bc 06 b9 27 3e 3e 3c 11 3e
       0.03534873 -0.021347059 0.16379175 0.14183137
0002f0 41 19 50 3d d2 6b 21 bc 4e 26 18 3b 8f d1 8b 3d
       0.050805334 -0.0098523665 0.002321619 0.068270795
000300 41 62 70 3d c1 ee 48 3d 7b 72 6f 3d 2f a1 52 3b
       0.058687452 0.04905582 0.058458786 0.003213953
000310 48 15 e0 3c 84 d5 09 3e b8 32 b1 bc 17 a5 cd 3c
       0.027353898 0.13460356 -0.02163063 0.025103135
000320 d7 22 a0 3b f8 e1 ba bc 97 4a 01 3d 3a 72 8f 3c
       0.0048869657 -0.022812828 0.031565275 0.017510522
000330 3b c1 f8 3c 64 10 0a 3e 0d 46 ad 3d d9 29 d3 bd
       0.030365577 0.13482815 0.08460627 -0.10310716
000340 79 11 fb bd 71 5d 9b bd 52 ee eb 3d 16 e7 1e 3e
       -0.12259192 -0.07586182 0.11520065 0.1551784
000350 9a 59 17 bc 11 fc 31 3e b7 e9 46 3e 92 d0 bd 3c
       -0.009237671 0.17381312 0.19425093 0.023170743
000360 f8 fd 33 bd 75 57 74 bd f6 42 f0 bc e4 43 2b 3c
       -0.043943375 -0.059653718 -0.029328804 0.010453198
000370 3c 2c 21 3c 03 44 8c 3d e5 a2 05 bd 9b 21 4a 3d
       0.009837206 0.0684891 -0.03262605 0.049348455
000380 92 0c e3 bc bf 80 30 be 84 c6 26 be 89 55 de bc
       -0.027715955 -0.17236613 -0.16286665 -0.027140396
000390 47 79 6f 3d c2 dd b7 3d 7e 82 a7 bc 69 d8 b2 3d
       0.05846527 0.08977844 -0.020447966 0.08732683
0003a0 b3 56 04 3e 62 98 93 3d 49 36 d9 3d b6 cc c7 3d
       0.12923698 0.07206799 0.10606057 0.097558424
0003b0 5b c7 b6 3d 79 8f 9e bc 82 25 a7 3c 29 b2 df 3c
       0.08924743 -0.019355522 0.020403627 0.027306633
0003c0 cd 9e 06 be e7 11 13 be 0c ff 96 bd 11 ff 12 3e
       -0.13146515 -0.14362298 -0.07372865 0.14355113
0003d0 f8 64 2f 3e 80 88 1c 3e c4 e6 ff 3d cb 75 21 3d
       0.1712836 0.15286446 0.12495187 0.039418977
0003e0 d9 be 9e 3b d2 19 04 be 3d 4c 36 be d9 1c 19 be
       0.004844528 -0.12900475 -0.1780252 -0.14952411
0003f0 cd 34 e2 bc d9 a2 e2 bc 84 46 c2 3b 19 b5 29 3d
       -0.027613068 -0.027665542 0.0059288163 0.041432474

module.layer2.0.bn1.weight f4 [32]
000000 89 59 03 3f 4d 04 01 3f ec be 16 3f 83 41 f7 3e
       0.51308495 0.5039719 0.58885074 0.4829217
000010 a1 f7 07 3f b2 4f 02 3f 41 55 05 3f 12 90 fa 3e
       0.53112227 0.50902855 0.5208321 0.48938042
000020 93 c8 f9 3e b4 21 04 3f 18 0e 0a 3f 27 8a 03 3f
       0.48785838 0.51613927 0.53927755 0.5138268
000030 a4 b9 fa 3e 31 f1 10 3f f7 94 16 3f 71 98 f9 3e
       0.48969758 0.5661803 0.5882105 0.48749116
000040 a1 f7 e6 3e a7 78 09 3f 67 ca f1 3e bb c7 00 3f
       0.451108 0.53699726 0.47224733 0.50304765
000050 a9 f2 15 3f 0d ec 1b 3f 29 ed 11 3f 64 ce 19 3f
       0.58573395 0.6090706 0.570025 0.6008055
000060 49 66 05 3f 4a 8c a9 3e 3a 08 0f 3f b8 9c df 3e
       0.521092 0.33114845 0.5587193 0.43674254
000070 d5 63 f8 3e e6 f4 0e 3f 52 53 05 3f ce a8 8b 3e
       0.48513666 0.55842435 0.5208026 0.27277225

module.layer2.0.bn1.bias f4 [32]
000000 3d 03 00 be 95 6a 96 bd 33 2b c5 bc 59 4c 81 bd
       -0.12501235 -0.07344548 -0.02406845 -0.0631339
000010 20 40 39 be 11 41 16 bd 98 9b 39 bd 99 77 bd bd
       -0.18090868 -0.036683146 -0.0453144 -0.09251327
000020 7e fd 0f be b5 ff 10 be b8 94 b7 bd 42 fc c7 bd
       -0.14061543 -0.14160044 -0.08963913 -0.09764911
000030 a6 6e 17 be 45 a9 5b bd 14 29 35 bd 2f 4d 2f bd
       -0.14788303 -0.053628225 -0.04422863 -0.042798217
000040 7b d3 ae bd 7c 7f fb bc 10 e0 53 b9 e5 7f 66 be
       -0.085364304 -0.030700438 -0.00020205998 -0.22509725
000050 73 03 e8 bd 96 c4 8e bd be b6 9f bd 44 8c 05 bd
       -0.11328783 -0.069710895 -0.07798527 -0.03260447
000060 e7 d5 e9 bd 26 4f 87 3e f2 ee 40 bd 77 75 af bb
       -0.11417752 0.26427573 -0.047102876 -0.005354579
000070 68 8a 5c bd a2 cb 71 be 90 e1 58 be d1 f7 22 3f
       -0.053842932 -0.23612836 -0.21179795 0.6365939

module.layer2.0.bn1.running_mean f4 [32]
000000 44 f3 1f be 87 52 79 3f c9 13 58 bd f7 4a 70 be
       -0.15620142 0.9739155 -0.052753244 -0.23466097
000010 40 c6 f4 bd ad f0 14 be 73 de 77 bf 62 44 85 be
       -0.11951876 -0.14544936 -0.96823806 -0.26028734
000020 9a 7c 12 bf b6 27 32 bf 95 c3 12 3f 5f 51 01 bf
       -0.57221377 -0.69591844 0.57329684 -0.5051479
000030 f0 13 49 3f 09 dc 20 3d d1 f3 82 be 08 ad 3a be
       0.7854605 0.039272342 -0.25576642 -0.18230069
000040 5f f6 95 bf b3 a8 2f bd 8f 2c 04 be 92 26 a1 bf
       -1.1715811 -0.042885493 -0.12907623 -1.2589896
000050 3c e6 86 bb e5 25 4f be b6 7e 20 bf ee 87 31 be
       -0.0041168015 -0.202293 -0.62693346 -0.1733701
000060 b8 eb 97 3d 72 95 89 be 75 e5 0e bf bc 1c a5 bf
       0.07418007 -0.2687183 -0.55818874 -1.2899394
000070 0f b3 c4 bd 9f 03 d2 be 1f 1b 23 3f 20 5f 99 bf
       -0.09604465 -0.41018388 0.6371326 -1.1982155
